assignment3_results/models/fed_c5e5.pth (torch, 502610 bytes, 6 tensors)

layer1.weight f4 [128, 784]
00000000: f06f e03c 16d2 8d3c ec53 e83c 281f 993c
00000010: c03a 333c 2b7c 003d ef0b 7a3c c05a fb3c
00000020: 64f2 e93b 8491 993c abd8 5e3c e08c 6c3c
00000030: 84ac 973c 5c6b cc3c afda f83c 6a12 a73c
00000040: 40a9 c13c 9d53 033d 1cbd 363d 9f33 913c
00000050: 353e 1d3c 2ea8 c03c 21f0 cb3c 319b e63c
00000060: 172a dd3c a4f3 213d 21bb b03c 4052 773c
00000070: 6617 233d 58bc 013d 4ca1 de3c c4cd 033d
00000080: 0c37 413d 2a89 f03c fe0e 893c 23da 203d
00000090: e4ad 343d b8ac 093d 78ed 8d3c ada3 dc3c
000000a0: 735c 093d c09d 233d 475b 1a3d 620d 0c3c
000000b0: c15d fd3c 572c 213d e883 333d 7cda 2c3d
000000c0: 1c31 293d e5f3 a33c f146 e43c 1abd e33c
000000d0: 1cb0 4c3c 4e95 9c3c 27e4 743c 1b61 bf3c
000000e0: de3c 103d aa12 a03c 244a db3c 8709 d13c
000000f0: 4bfb ab3c 9ccc 813c 0a98 dd3c ce63 673c
00000100: 8efa cf3c 6486 073d b33f 943c b9f0 e53c
00000110: 0177 f33c 8a90 223d 6003 173d d15e 383d
00000120: 9a25 283d 837e 283c 48eb dd3c 768d e03c
00000130: 31ce d73c 2d4c d23c 08a9 763c dd3b 203c
00000140: 3adf d93c fa14 033d 9f16 ff3c 8165 143d
00000150: a074 2c3c a341 c53c e4e9 cb3c 7061 a03c
00000160: be56 173d cb13 af3c 771e b03c 9e0d 7e3c
00000170: 9c50 2c3d 3bb8 913c 316c 103d 0a2d 963c
00000180: 913d d63c 2862 4f3d 60ab c43c cc54 cd3c
00000190: 68bd f3bb dfc6 4f3c 3c3e 4a3d 8eb8 363d
000001a0: dea6 573d be46 c73c eeb3 123d e831 8b3c
000001b0: 7869 a03c d0e9 9c3c 978a 053d 769d fd3c
000001c0: 360f a53c 1828 133d ed20 263d 9a17 5f3c
000001d0: 0b46 2a3d 6b65 143c f86a d13c 77f4 ce3c
000001e0: 4923 cd3c 1a00 433c a7e4 423d 450f 003d
000001f0: f9f3 383c 1aa1 703c d4b2 e93c a356 963d
00000200: 9637 1f3d be9d 613c e33f 703d fe00 dc3d
00000210: b79d ab3d d65c 1f3d b3ed 1cbb 4111 eb3c
00000220: a7b5 d83c 41ca 5e3c 0d42 313d 9e14 d63c
00000230: 9e01 e43c c0a4 dc3c f623 f13c 5ac7 0f3d
00000240: 2be8 253d 8436 bf3c 923c fd3c b1cf eb3c
00000250: 6cb5 95bb 6d1b 76bc 141c b83d 691b bf3d
00000260: be0c 3f3d 6020 4639 a324 223e 7a3c 033e
00000270: 61c0 223d 7146 5c3d d45a 293d 36e4 a93d
00000280: 9eb7 94bb 7a90 b03d 0f73 423c 4648 0b3d
00000290: 9ce2 193d b4b9 113d c26d 063d 6aa3 113d
000002a0: ff42 593c 96df 413d a099 003d e258 853c
000002b0: da02 e43c 7271 013d cca3 c03c 3e2f d13b
000002c0: 9cd9 e7bc f7cf 533c 0c62 a93d d299 fcbc
000002d0: c5db c3bd 99f5 823e 2347 d13e 0be9 793e
000002e0: 51ae 813d 8556 d83d b1b6 043e 82a6 0abe
000002f0: fdfb da3b e544 113e 1aec ca3d 230a 643d
00000300: d2f4 52bb a613 c33c ed79 813c da4b 313d
00000310: dbd8 3d3d 7fcc 513d b0be 8f3c c690 063d
00000320: ea98 c83c 1bab 8b3d 4672 983d b253 863c
00000330: 0002 f93d 7d84 c63c 692c 903c 5e87 f6bd
00000340: 0a96 fbbd d5d0 153e 786c be3e 0563 813e
00000350: 6f3c 163e ee1e 02be 191e c63e d827 973e
00000360: 043c cb3c afa4 f63a 77dc eabd 79b6 f13c
00000370: fd84 573c 0c64 3d3c 428a 873c 60cc 993c
00000380: ea18 3f3d caed 153d 648f 373c 8fcf b83b
00000390: 21a2 903d b76a fe3d bcc1 4e3d 3fbe 83bd
000003a0: 4ce9 f0bc 84de 833d a293 fd3d 4b59 0bbe
000003b0: 9d08 1b3e 73fc a23e bd14 9d3e 5fa4 153f
000003c0: 7f9f 973e 55aa 2a3e 062c ee3d 313b 6f3e
000003d0: c919 7d3d 7fb3 0dbe c822 3abd dd5e 903d
000003e0: a3d0 9d3d deff de3b b0b5 be3c f4a3 913c
000003f0: 46c4 6c3d 62e2 1e3d 77dd 043d 2aa4 5d3d
0.027397126 0.01731209 0.02836033 0.018691614 0.0109393 0.031368416 0.015261634 0.030682921
0.007139491 0.018746145 0.013601462 0.014437884 0.018514879 0.024953537 0.030377714 0.020394523
0.023640275 0.03206216 0.044613943 0.01772481 0.009597351 0.023517694 0.024894776 0.028150173
0.026997609 0.039538994 0.021573605 0.0150952935 0.039817236 0.03167376 0.027176522 0.032178655
0.047171637 0.02936228 0.016730782 0.03927053 0.044111148 0.033611983 0.017325148 0.026933515
0.033535432 0.039945364 0.037684705 0.008548113 0.030928494 0.039348926 0.043826967 0.04220055
0.0413066 0.020013759 0.027865859 0.027800132 0.01249316 0.019114163 0.014946974 0.023361733
0.035214297 0.01954015 0.026768751 0.025517238 0.02099385 0.015844636 0.027050037 0.014122916
0.025388028 0.03308715 0.01809678 0.028068887 0.029719831 0.039688624 0.036868453 0.0450123
0.041051485 0.010284069 0.02708973 0.027411204 0.026343437 0.025671089 0.015054949 0.0097798975
0.0265957 0.032002427 0.031138716 0.036229614 0.010525852 0.02407915 0.024891801 0.019577712
0.03694796 0.021371743 0.021498902 0.015506176 0.042069063 0.017788043 0.03525943 0.018332023
0.026152404 0.05063072 0.0240075 0.025064848 -0.0074383505 0.012681692 0.049375758 0.0446096
0.05264937 0.024325725 0.035816126 0.01699157 0.019581541 0.01915446 0.032602873 0.030958872
0.020148855 0.03592691 0.040558744 0.013616467 0.041570704 0.009057383 0.025563702 0.025263054
0.02504124 0.01190188 0.04758134 0.031264562 0.011288636 0.014686847 0.028527655 0.073407434
0.03887137 0.013770519 0.058654677 0.10742377 0.08379691 0.038906895 -0.002394539 0.02869475
0.026453806 0.013598026 0.04327588 0.026132878 0.027832802 0.026934028 0.029436093 0.035102226
0.040504616 0.023341425 0.030912671 0.028785558 -0.0045687463 -0.015021187 0.089897305 0.093314
0.04664301 0.00018894812 0.15834288 0.12816039 0.039734248 0.053778116 0.041346386 0.08295481
-0.0045384904 0.08621307 0.011868252 0.034004472 0.037569627 0.03557749 0.032819517 0.035556234
0.013260602 0.04733237 0.03139651 0.016277734 0.027833391 0.03160233 0.023515604 0.0063838055
-0.028302006 0.012928001 0.08270654 -0.030835066 -0.09563402 0.25578 0.40874586 0.24405305
0.06332076 0.10563377 0.12960316 -0.1354008 0.0066828714 0.14186437 0.09908314 0.05567373
-0.0032189381 0.02381308 0.015805209 0.04328523 0.046349388 0.051220413 0.017546982 0.03285291
0.024486978 0.06819745 0.07443671 0.01639733 0.121585846 0.024233097 0.017599301 -0.12037538
-0.12284477 0.14630444 0.3719213 0.25270858 0.14671491 -0.12707111 0.38694838 0.29522586
0.024808891 0.001881739 -0.114678316 0.029505955 0.0131542655 0.011559498 0.016545419 0.018774211
0.04665462 0.036603726 0.011203621 0.0056399773 0.07062174 0.12422698 0.05047773 -0.06432771
-0.02940812 0.06438926 0.12381674 -0.13608281 0.15140004 0.31833228 0.30679885 0.58453935
0.29613873 0.16666539 0.116294906 0.23362423 0.06179217 -0.13838004 -0.045443326 0.07049344
0.0770581 0.006805404 0.023279995 0.017778374 0.05780437 0.038790114 0.032437768 0.054111637

layer1.bias f4 [128]
00000000: 3941 bb3c d86a a93b 20fc f7ba db05 16bd
00000010: c63f b7bb 171b f7bc 8696 1f3d 1f4e 5bbd
00000020: 1fa0 61bc aa6c 73bc 32cc 6e3c f825 8fbc
00000030: 27a8 3cbb 6e43 39bd c360 e2ba 446e 723c
00000040: 283a 693c 4eaa 26bc 5046 44bc 88e9 e4bc
00000050: e416 4b3d 40c1 f6bc c30b f0bc f8a4 8ebb
00000060: f941 1abc 1dba 17bc 6f15 31bc f086 d9bb
00000070: a6d6 36bd 420e 923c dc4d 9bbb 601e 733c
00000080: 05ce 103d 5a4d 56bd 8c74 05bd 267f f33b
00000090: 6ec9 e9bc 6005 54bc a507 30bd a8b4 1c3b
000000a0: 2519 41bc 0a5a 063c 3740 1a3b 70ff 38bd
000000b0: e46f 613d 05e5 60bc a55d a33c 6432 98bb
000000c0: 81e3 41bd 8146 06bd 48a8 1fbd f5f1 7cbd
000000d0: 6a89 d1bc 1e1b 353d 65e9 57bd 4791 90bc
000000e0: a7b7 e7bc 82a1 dcbc f288 d2bb db2e 47bc
000000f0: 8384 b3bb 0e6b cc3c 1760 21bd 87c7 09bc
00000100: e875 b03b 7c7d 42bd 5048 3ebd cc68 a3bd
00000110: e806 30bc 40dd 9fbd 8270 023a 5eab 48bc
00000120: bea6 ee3c 6666 2abd 4635 31ba 6271 653b
00000130: 51e1 c3bc c2bc 1dbc 5c51 003d 2a9a cbbc
00000140: fa32 3d3d 7048 3dba 5617 fdbc 1715 c03b
00000150: 48b1 4bbd deca 14bc 17a9 f5bc 9f55 f0bc
00000160: faf9 273c c60a 1abd 5a5a c1bb 7b57 4fbd
00000170: a217 32bd 41bf adbc e8ab 103c f88a c1bc
00000180: e47a 1fbd 3260 c8bc 5298 17bc bd30 3cbd
00000190: 94db 0cbd 4cca 023c adc6 4cbb fa4c 32bd
000001a0: 1cee 7a3c 66d1 9c3c 193c 53bc 884e 09bd
000001b0: 9f5e 1f3d 5e05 17bb 2b72 e7bb 2104 6f3c
000001c0: 720e 09bd d5aa a7ba a020 43b7 0450 023d
000001d0: 572a 963c e12d 4e3c 6e52 24bd 1425 3dbd
000001e0: 74bc 49bd 649f a03c d82d 3ebc 57b8 89bc
000001f0: 26e3 0a3b 2433 55bd d476 1abc 8f64 38bd
0.022858249 0.0051702075 -0.0018919744 -0.036626678 -0.005592319 -0.030164285 0.03896191 -0.0535413
-0.013771086 -0.0148574505 0.014575051 -0.01747416 -0.002878675 -0.04523032 -0.0017271269 0.014796797
0.014235057 -0.01017244 -0.011979654 -0.027943388 0.049582377 -0.030121446 -0.029302483 -0.004353162
-0.009415143 -0.009260681 -0.010808333 -0.0066384003 -0.0446383 0.017829064 -0.004739506 0.014838785
0.035352726 -0.052319862 -0.03258185 0.0074309288 -0.028538432 -0.012940735 -0.04297604 0.002391139
-0.01178578 0.008200178 0.002353681 -0.04516548 0.055038348 -0.0137264775 0.019942114 -0.004644679
-0.047336105 -0.03278208 -0.038978845 -0.061754186 -0.02557822 0.044215314 -0.052712817 -0.017647399
-0.028285814 -0.026932482 -0.0064250166 -0.012157167 -0.005478443 0.024953391 -0.03939828 -0.008409387
0.0053851493 -0.047482952 -0.04645568 -0.07978973 -0.010743834 -0.07805872 0.00049758714 -0.012247888
0.029132243 -0.04160156 -0.00067599525 0.0035010208 -0.02391115 -0.009627523 0.03132759 -0.024853785
0.046191193 -0.0007220572 -0.030894917 0.005861889 -0.049729615 -0.00908157 -0.029987855 -0.029337702
0.01025247 -0.03760793 -0.0059006633 -0.050620537 -0.04347957 -0.021209361 0.008830048 -0.023625836
-0.038935557 -0.024459932 -0.009252625 -0.045944918 -0.034389094 0.007982802 -0.003124635 -0.04353044
0.015315559 0.019142818 -0.012892746 -0.03352216 0.038908597 -0.002304397 -0.0070631704 0.014588387
-0.03346104 -0.0012792001 -1.1630502e-05 0.03181459 0.018330736 0.012584181 -0.040117674 -0.04617794
-0.04925199 0.019607253 -0.01160761 -0.016811533 0.002119252 -0.052050725 -0.009427745 -0.045017775

layer2.weight f4 [128, 128]
00000000: 00cb 7a3e 4f2b fabc deeb 4e3d 8687 b03e
00000010: 3a13 63be e346 3f3f 623f c23e 5b08 c6bc
00000020: eac2 33be e656 3d3c 808f a13d dc6a 85be
00000030: 7e98 e5bc 0c81 32be 5274 08bc 00ff 4dbd
00000040: 68ca c7bb 3e18 013d 1c3d 74be 1de1 7ebd
00000050: 2d93 2f3e eeca 25bd 028f 8ebd 07ac 0a3e
00000060: 967e 73bc ccd9 bdbd 8784 e4bd 53fa cebd
00000070: bc21 c9bd 167f 993b 5038 b4bc 38cb aebc
00000080: e918 17bd 2cda 1fbf c816 c73e a0e7 bc3e
00000090: 3ccf ebbd dfa3 1cbe 4858 1f3f 31ed 093b
000000a0: e965 1abc 03e2 0d3d ff68 88be 97e0 36be
000000b0: 3448 193c e349 223d b6d2 8cbe 3b53 b53d
000000c0: 8667 803d a2a7 dfbd e620 9bbe 3b90 973c
000000d0: 1420 51bb d097 9c3e 0ca4 1bbf e717 dc3d
000000e0: 445b cf3e 4eb8 9fbc 6058 06be 86a2 1b3c
000000f0: b64a 34bc 4012 2b3e 672c 85bd 17e1 923c
00000100: ca20 a23c b496 66be 4e7c d5bd 356d d5bd
00000110: 263f 32bb ca99 323d 79e1 723c 986f 94bc
00000120: 5488 d93d c737 23bd 3681 5e3c 66c2 463e
00000130: 6c64 cdbe 1f2e 91bc 32aa aa3d ed33 8cbd
00000140: 1e07 123d 453d e3bc 6f1f 8f3d 3b33 a5bc
00000150: 9bcc 37bd 75e9 90bc e749 2d3e e692 773e
00000160: bc80 db3b 6a24 823e 4c30 ae3e 2cf2 9b3e
00000170: e48f dc3d 41b1 22bf 5ab7 1a3e 41ff f13d
00000180: 2246 87bc 24e5 b6bd 0e0b e83c 540e c83e
00000190: 3b80 bd3e d762 623b dc7d 883d c825 283e
000001a0: 2bdb 1f3c 04ca 293e 5012 d23c 5e56 f43c
000001b0: ac50 b13e 477d 8abe 46fb a4bc eb20 c63e
000001c0: 45d9 b43b b4be 52bb c624 b1bc 8e04 493e
000001d0: 3fa3 7c3e 0c2b 6e3c 023c e8be 24cf b0bd
000001e0: aa87 d0bd e783 d43e df9b 3f3d 5218 20be
000001f0: 04ec 953c 92d3 1cbe 28e6 20be 17b0 62bf
00000200: f426 ecbd 643c 463c 1214 9f3c 4cb8 e3bd
00000210: b4c2 7abd 92b7 38be 1ebb 0dbe ac95 3d3e
00000220: fc23 d73e f895 523e 76df 1dbe 3894 4abd
00000230: edfb 11bc 0c5a ba3c c218 bd3c 8ec7 d4b9
00000240: 2685 3cbd 802d 98bc 0a93 773e 3375 f3bd
00000250: d1ad 91be 62cf b53e 0f45 823e aa83 623e
00000260: 5803 ebbb f0a2 9f3d 22b2 8d3d 9806 54bc
00000270: 6f8f 8abe d29c 1dba bd0a 093c 658a ad3e
00000280: 7765 823e 0992 7e3d 8655 dbbe fa38 74bd
00000290: 6b1a 5dbd aaf6 093a 3cb5 bbbd f8f5 f2ba
000002a0: ca1b 4b3c ce2e 843d a68f c0bd eff5 b53d
000002b0: 6eef d1bd 7db0 88be eec7 d73c 16d5 743d
000002c0: baed 84be 90da 8ebe 5eb0 b9be c93c e4bd
000002d0: 97b8 94bd 39b4 1b3e b3fa 303e c6d0 78be
000002e0: da02 02bc 79a2 8dbe 83f6 32be fc8d 37bc
000002f0: b00e fb3c d3bd 113c 014d ecbd 1958 323c
00000300: b4e7 0c3d 5b00 cabd c24e 083e 0698 ec3d
00000310: 562d afbc b9d3 c2bd 903a d8bc ce22 523c
00000320: d144 153e 2e10 16be ad68 8fbc 3c87 92bc
00000330: 553f 043f b523 493d 4d12 21be e16d adbe
00000340: 3c12 ab3e 749a 04bd 5e47 063d 9a93 263e
00000350: 98be a9bd 1e71 9fbc 8cdb 91bc d76b 85bd
00000360: 727c 043d bcd8 c43e d2ae a1bd 0e4e 453e
00000370: 14c9 07be 140a 4b3e b2da abbe da05 96be
00000380: 0c98 c23c ff40 c4bc 7a39 abbc 2e89 263b
00000390: 520b 32be c51c c4bc 9e18 4bbc c844 d33d
000003a0: eb31 67bc 78cd 41be 5e8f f83c 317f 483d
000003b0: 3def 903e e8ed b5bd 462c 463d 0f1d a73e
000003c0: 8233 28be fecb fdba af52 5d3d ae09 a43e
000003d0: 931d 6e3e c892 6c3c ee1c 043e ba57 0d3e
000003e0: 117c 9cbe 6fe7 6dbd a241 273d 7b45 0a3f
000003f0: 1482 a0bb e510 fe3d 9b4b a53e 3e66 6d3e
0.24491501 -0.03053823 0.05051791 0.34478396 -0.22175303 0.7471754 0.37938982 -0.024173906
-0.17554823 0.011556363 0.078886986 -0.2605809 -0.028026816 -0.1743204 -0.008328514 -0.050292015
-0.0060971268 0.03151726 -0.23851436 -0.062226404 0.17145987 -0.040476732 -0.0696087 0.13542186
-0.014861723 -0.09270057 -0.1115809 -0.10106339 -0.098208874 0.0046843393 -0.021999508 -0.021337137
-0.03688899 -0.6244228 0.38884568 0.36895466 -0.11514136 -0.15296887 0.6224408 0.0021045918
-0.009423711 0.03463937 -0.26642606 -0.17859112 0.0093555935 0.039621245 -0.2750451 0.088537656
0.062697455 -0.10920645 -0.30298537 0.018501392 -0.003190999 0.30584574 -0.6079719 0.107467465
0.40499318 -0.019497063 -0.1311965 0.009499198 -0.011004141 0.1670618 -0.0650261 0.017929597
0.019791026 -0.22518426 -0.104241 -0.1042122 -0.0027198284 0.043603696 0.014824265 -0.018119618
0.10621706 -0.039848115 0.013580611 0.19410095 -0.40115678 -0.017722188 0.083332434 -0.068458416
0.03565132 -0.027739177 0.06988417 -0.02016603 -0.04487286 -0.017689446 0.16922723 0.24177131
0.006698696 0.25418407 0.34021223 0.304582 0.107696325 -0.6355172 0.15109006 0.11816264
-0.016512934 -0.08930424 0.028325584 0.39073431 0.37011895 0.0034543776 0.06664631 0.16420662
0.009756844 0.16580969 0.025643498 0.02982634 0.3463186 -0.27048704 -0.020139348 0.3869699
0.0055190646 -0.0032157125 -0.02162398 0.19630644 0.24671648 0.01453663 -0.45358282 -0.08633259
-0.10182126 0.41506884 0.04677951 -0.15634277 0.018301018 -0.15315083 -0.15712798 -0.8854994
-0.11530867 0.012099359 0.01941875 -0.11119136 -0.06122084 -0.18038777 -0.13840911 0.18514127
0.4201964 0.20565021 -0.15417275 -0.04945776 -0.008910161 0.022748016 0.023083095 -0.0004058447
-0.046025418 -0.018576384 0.24177185 -0.11887588 -0.28452924 0.35509783 0.25443313 0.22120538
-0.0071720295 0.0779475 0.06918742 -0.012941025 -0.27062556 -0.0006012443 0.008364377 0.3389465
0.25468037 0.06215099 -0.42838687 -0.05962465 -0.053980272 0.0005262891 -0.09165427 -0.0018536439
0.012396762 0.0645424 -0.09402399 0.08884799 -0.10250746 -0.2669715 0.026340451 0.059773527
-0.2596262 -0.27901125 -0.3626737 -0.11144406 -0.0726177 0.15205468 0.17283134 -0.24298391
-0.00793525 -0.2766302 -0.1747685 -0.011203285 0.030646652 0.008895355 -0.11538125 0.010885262
0.034400657 -0.09863349 0.13311294 0.11552434 -0.021383923 -0.09513039 -0.026395112 0.012825681
0.14577033 -0.1465461 -0.017505968 -0.01788675 0.51659137 0.04910632 -0.15729637 -0.33872893
0.3341235 -0.03237386 0.032782905 0.16267243 -0.08288306 -0.019463118 -0.017804883 -0.065147094
0.032345243 0.38446605 -0.078946725 0.19268057 -0.13260299 0.19828063 -0.3356529 -0.2930134
0.023754142 -0.023956774 -0.02090143 0.0025411355 -0.17387131 -0.0239395 -0.012396006 0.10315853
-0.014111022 -0.18926036 0.0303418 0.048949424 0.28307524 -0.08883268 0.048382066 0.32639357
-0.16425899 -0.0019363163 0.05403393 0.32038635 0.23253469 0.014439292 0.12901661 0.13802996
-0.30563405 -0.05808204 0.040834077 0.5401227 -0.004898319 0.12405566 0.32284245 0.23183534

layer2.bias f4 [128]
00000000: b5a5 4e3e 5240 543e d058 383f 5214 2abd
00000010: 2c73 47bd 8eb5 8e3e 7554 18bf d07a 6c3e
00000020: be6d 0dbd 049b f2be be02 103e de0d 023c
00000030: a5ba bfbc 48ab 143e 9921 2cbe 10d1 0bbe
00000040: cd57 46bc dbe0 c93e 7556 e93d 790b f53d
00000050: 73fa 703e 8ef4 c3be 6722 fcbb 3a4f 8c3f
00000060: bebb 753e 54c1 223f 50ac a73c 9ca4 223f
00000070: aebb a1be 3f44 adbe 1100 30be eef9 a13e
00000080: eb3b 2fbe 5efe 2d3e b248 843d 4246 4c3e
00000090: 22be cdbe b248 2bbe ddc2 063f decb 12bc
000000a0: f0f4 b93e 8200 a6bc 04e9 5d3e 5d30 c63c
000000b0: 9106 f23e b2e9 6cbe 38e7 ab3d 828a 703e
000000c0: a988 fc3e dca4 f43e 36d4 0ebe 7db3 5bbd
000000d0: a887 2c3e 1196 87bd 9de1 2e3e 1e91 fe3d
000000e0: 08c6 823d ce4e a7bc 32d7 aabe 42f1 32bf
000000f0: e0c1 a2be bbda 953e c5a1 b43e 82f5 41be
00000100: 6034 033f b1f4 c2bd 8b3e 853d 7a9c 4cbf
00000110: 426a 0ebf 3dbf 963e bec7 e53e 4679 95bc
00000120: b335 6bbe dc2c 5bbf 8023 e43d 9799 1bbd
00000130: e7ca 9a3c daf5 c03e 9ddf b43d 7079 eebe
00000140: e188 923e ea80 963e 0c36 9e3d 8295 f53c
00000150: 41a6 50bd 0353 82bd 08f8 04bc 2e7b b13c
00000160: 4868 dcbe 53d1 833e a502 ee3d 8333 72bd
00000170: 4a62 483e e47c cbbd b4b0 f0bd 63a3 9bbe
00000180: b502 16be c240 78be e22b 83bd 4138 533e
00000190: 081c 533e b27f e63e 54e1 77be 1eb0 9b3d
000001a0: 5605 a9be 827a e13c b61d d6be a8fe 1c3d
000001b0: 792b 8d3c bb1b cb3e 7232 c6bd 52c1 de3e
000001c0: e8bd 7b3d d65d 193e 63dd af3d 8bbb 6b3c
000001d0: 570e 023f 198b c1bd fa20 92bd f9b7 8ebe
000001e0: 907a 163d e9f7 5a3e 1d64 a73d 9098 98bc
000001f0: 1a65 54be d9cc 96be 01ea 5bbe bceb 133f
0.201804 0.20727661 0.7201052 -0.041523285 -0.04869382 0.2787289 -0.5950387 0.23093724
-0.034528486 -0.47383893 0.14063546 0.0079378765 -0.023404429 0.14518464 -0.16809691 -0.1365397
-0.012105894 0.39429364 0.113934435 0.11965079 0.23533039 -0.38272518 -0.0076945308 1.0961678
0.23997399 0.63576245 0.020467907 0.63532424 -0.315885 -0.3384113 -0.17187525 0.31635994
-0.171127 0.16991565 0.06459178 0.19948676 -0.40184122 -0.1672695 0.5264109 -0.008959739
0.36319685 -0.020263914 0.2167092 0.024192983 0.47270635 -0.23136023 0.08393711 0.23490337
0.49323013 0.47782028 -0.1394814 -0.05363797 0.16848624 -0.0662042 0.17078252 0.12430023
0.06385428 -0.02042332 -0.33367306 -0.6989938 -0.3178854 0.2926844 0.3527967 -0.1894131
0.5125179 -0.095193274 0.0650607 -0.79926264 -0.55630887 0.29442778 0.44878954 -0.018246304
-0.22969703 -0.85615325 0.111395836 -0.03798827 0.01889558 0.3768757 0.08831713 -0.46577024
0.28620055 0.2939523 0.077251524 0.029978517 -0.050939802 -0.063634895 -0.008115776 0.021665182
-0.4304831 0.2574564 0.11621598 -0.059131157 0.19568744 -0.0993593 -0.117524534 -0.30398092
-0.1464947 -0.24243453 -0.06404854 0.20626928 0.20616162 0.450193 -0.2420705 0.07601951
-0.33011883 0.027524237 -0.41819543 0.038328797 0.017232643 0.39669594 -0.096775904 0.43506867
0.061460406 0.14977202 0.08587148 0.014387975 0.5080313 -0.09450359 -0.07135196 -0.27874735
0.03673798 0.21383633 0.08173392 -0.018627435 -0.20741692 -0.2945316 -0.21475984 0.5778158

layer3.weight f4 [62, 128]
00000000: c2a4 fb3e 8296 34be b4ae 8dbe d1b9 423e
00000010: 68b3 123d 651b 273f 80bd 1ebf 1499 a53e
00000020: 4a52 70bc 5326 0bbf 4f61 823e f44b 49bd
00000030: 1ed8 063e a7a7 3d3e a093 a2be b01e f7be
00000040: 9d3d 87bd d45a 48bf b004 29bd aede a23d
00000050: 7c3a d1bd cafd d8be 40f1 d7be d188 8b3e
00000060: 6e10 fbbd fd6d 6bbe d090 5d3c eb2a 853e
00000070: e057 e6bd 411f 15bf 647c 8e3d 5b65 a93e
00000080: ed21 2abd 919a 56be e82f aebe 0a1f 9d3e
00000090: 2b79 09be 4368 66be 4b51 6a3f 8a52 4bbe
000000a0: 66e3 dcbd 2223 143f cc14 d9bd d283 94be
000000b0: 2a57 553f 7785 40bf 3c59 b73d f097 ffbd
000000c0: b938 b73e 8b74 bfbe 63a7 323e 5888 19bf
000000d0: ea0e 54bf 2d26 79be 4b8d cf3e 1699 7d3e
000000e0: 3278 84be 2edc 7ebe c065 9cbe 45d3 3fbe
000000f0: 9ccd f93c 4d57 133f 9359 61bc 005c 22be
00000100: 4073 7b3c 6816 14be 0c1b cd3c eca4 24be
00000110: b33a 413f 4109 78be c262 da3e 4cf3 fb3d
00000120: 23e0 69be 9435 30be 7056 6ebe b658 5fbd
00000130: 9f69 e23e 7065 353f 3094 04bf 8633 813e
00000140: 2420 03be e788 ba3e 801d cebd 8016 01be
00000150: fd07 a13e d642 793e 9a39 4d3e 514c 103f
00000160: 60a0 ce3c bcf8 a93e eaf1 a83e 0c27 bb3e
00000170: 12a0 103f e34c 0cbf 9abb 99be f69b 8bbd
00000180: cd9b c23d 3f61 f63e 4c47 213e d733 e33e
00000190: 62d7 dbbe ea3d afbe c37c 8dbd 5fa9 84bd
000001a0: dc90 89be 2211 4ebe 423d 36bf ed6b b1be
000001b0: 8437 9e3e be37 ac3e 4051 a7be 0e99 8a3e
000001c0: 3c67 bf3e edb8 8dbd 2662 98bd 93fd 25bf
000001d0: 20cf 5bbd 74c3 dfbd 9444 b03d 86f0 bb3e
000001e0: 2072 b63e 9901 ecbd 714d a0be eb9a 9e3e
000001f0: f951 b53e 6ac1 b43d 7d58 47be 900d 243c
00000200: bd8d 92bd 3a61 6c3d 3a28 073e eca8 e5be
00000210: f04a 4ebf 7b06 013e acf2 9c3e a4e2 55bc
00000220: 5b94 b63d 9faa 5abd b1c1 86be 4281 7dbd
00000230: c87f 82be 382f 11be 5ec6 14bf 4aed 29bf
00000240: a62d 353f 7ee9 603e f647 afbe d0e1 02bf
00000250: d34a 14be 7080 a83e b927 94be 9cda 80bd
00000260: 5273 5dbf 5e6f bdbe 102b 3ebe d864 2dbf
00000270: c02c 69be cdf4 77be ac0d 0abe 37f3 bc3e
00000280: f82d a03d 0f9b ddbd 90a8 8e3e 46bb 5fbe
00000290: 5f75 9dbe 5102 f63e 1935 243f d6b7 683c
000002a0: c864 e73d ec9b 45bf b708 703e 4ef7 f33e
000002b0: f4e3 aebe d338 0c3f 33c9 ba3e 2620 fc3c
000002c0: c468 563e fee4 b13e f89d 6abe 8c10 023e
000002d0: 1c21 243f 3858 87be 35fc cf3e c25b 48bd
000002e0: 0674 b1be 031c 5cbe fad7 0e3e 6b79 f43e
000002f0: 49bb 4dbf 2493 a13c 63a4 d93e 0805 12bf
00000300: 082f 193e cd41 0b3e 8237 e63d 341a cfbd
00000310: aa60 85be bb1e f0be 4a9f 123f e2a5 6cbe
00000320: 8ec3 2dbf caf2 1bbf 7e91 7f3e 2870 bbbd
00000330: 2822 353e aecc 0f3e 02c9 333d 5358 fc3e
00000340: 272a 103f 2118 30bf 9d4b 883e b8c8 103f
00000350: 0ffb 9d3d c24d 6f3e 56ad ab3e 86d2 b33e
00000360: c05d 533e 7dc6 e5bd 221d 803e 2797 9bbd
00000370: 1996 2c3f 89e8 f53e 210c bc3e 3eef de3d
00000380: f61e d4bd 96b5 3d3e 91e6 dd3d f0b7 11be
00000390: dff4 c93e 80f0 49be c2ee 13bf e73c ae3d
000003a0: c8c6 72be 486f b43e b8f1 13be 845e 52be
000003b0: 6a30 4cbf 1c4c cc3e 71ca ca3e 0cc8 24bf
000003c0: 5a2a 79bd 1f8c 8dbe 52a1 843c f17a be3d
000003d0: ff47 a7be a6e0 3bbf 5015 84bd 1f4a 023f
000003e0: ccaa 753e 720d f43d d6d8 c23e 960d a9be
000003f0: 9970 cb3e 4c43 863e 4c42 e33e 798f 4cbd
0.49149138 -0.17635539 -0.2767235 0.19016196 0.035815626 0.65276176 -0.62007904 0.32343352
-0.014668057 -0.54355353 0.25464866 -0.0491447 0.1316838 0.18520986 -0.31753254 -0.482656
-0.06603549 -0.7826359 -0.041264236 0.07952629 -0.10216233 -0.42381126 -0.42176247 0.2725282
-0.12258993 -0.22991176 0.0135232955 0.26009306 -0.112472296 -0.58250815 0.069573194 0.3308514
-0.04153626 -0.209574 -0.34020925 0.30687743 -0.13425128 -0.2250071 0.91530293 -0.19855705
-0.1078556 0.5786611 -0.1059967 -0.2900682 0.83336127 -0.7520365 0.08952567 -0.12480152
0.35785463 -0.37393603 0.17446665 -0.5997367 -0.8283526 -0.24330969 0.40537485 0.24765429
-0.25872952 -0.2488868 -0.3054638 -0.18732937 0.03049355 0.57555085 -0.013754266 -0.15855408
0.015347302 -0.14461672 0.025037311 -0.16078538 0.7548019 -0.2422228 0.4265347 0.123022646
-0.22839408 -0.17207938 -0.23275161 -0.05452796 0.44221207 0.70857906 -0.51788616 0.25234622
-0.1280523 0.36432573 -0.100642204 -0.1260624 0.31451407 0.24341902 0.20041505 0.5636645
0.025222957 0.33197582 0.32997066 0.36553228 0.5649425 -0.5480482 -0.3002594 -0.068168566
0.09502373 0.48121068 0.15749854 0.44375488 -0.42937762 -0.34226924 -0.06908562 -0.064776175
-0.2686833 -0.20123723 -0.7118722 -0.34652653 0.3090173 0.33636278 -0.32679176 0.27069896
0.3738345 -0.069200374 -0.07440595 -0.6484005 -0.053664327 -0.109259516 0.0860683 0.36706942
0.35633945 -0.11523742 -0.31309083 0.30977568 0.35414103 0.08825953 -0.1946735 0.010012999
-0.07155941 0.05770991 0.13198939 -0.4485544 -0.80583096 0.12600128 0.30653894 -0.013054524
0.08915015 -0.053385373 -0.2631965 -0.061890848 -0.25488114 -0.14178169 -0.58115184 -0.663777
0.7077278 0.2196407 -0.3423459 -0.5112581 -0.14481668 0.3291049 -0.28936556 -0.062916964
-0.8650409 -0.3699903 -0.18571115 -0.67732 -0.22770977 -0.24214478 -0.13481778 0.36904308
0.07821268 -0.10820591 0.27862978 -0.21848783 -0.3075361 0.48048642 0.6414352 0.014203986
0.112985194 -0.7719104 0.23440824 0.47649616 -0.3415829 0.54774207 0.36481628 0.030777048
0.20938402 0.3474502 -0.22911823 0.12701625 0.6411302 -0.26434493 0.40622106 -0.048915632
-0.3465883 -0.2149506 0.13949576 0.47748885 -0.803639 0.019723482 0.4250823 -0.5703893
0.14959347 0.1359932 0.11241056 -0.1011242 -0.2605031 -0.46898445 0.57274306 -0.23110154
-0.6787652 -0.6091734 0.24957845 -0.091522515 0.17688811 0.14042923 0.043892868 0.49286136
0.5631432 -0.6878682 0.26620188 0.5655627 0.07713901 0.23369506 0.33530682 0.35121554
0.20641232 -0.11219499 0.25022227 -0.075971894 0.6741653 0.48028973 0.36728004 0.108854756
-0.10357468 0.18526301 0.10834993 -0.14230323 0.39444634 -0.1972065 -0.5778619 0.0850771
-0.23708642 0.3524115 -0.14447677 -0.20543867 -0.79761374 0.39901817 0.39607576 -0.6436775
-0.060831405 -0.27645966 0.016190205 0.09300793 -0.32672116 -0.7338966 -0.064493775 0.5089435
0.23990935 0.11916627 0.38056058 -0.33018178 0.39734343 0.26223218 0.44386518 -0.049941514

layer3.bias f4 [62]
00000000: d043 f53e 4863 c93e 82e5 43be 26b0 353e
00000010: a253 e83d fcc1 783e 9b83 f63c 8857 69bd
00000020: cacc 723f a8af a23e 7790 99be e6a8 873e
00000030: 9b7d 593e af29 f23d ed6c 45bd eb16 8e3e
00000040: fa3e c63c 4e4e 713e be42 e3be a6cd e8be
00000050: 8deb fb3c bc9b a4be b5d6 1f3e 863f 813d
00000060: 8b7a 883e f9b0 dcbc 56f7 183e 13f1 5c3e
00000070: e340 1abc 38b7 e53d a943 b03e 551c cdbd
00000080: 7f89 c83e 58b7 8d3c 9c62 2bbd 82c1 1ebe
00000090: dec9 56be 8cc6 8bbe b59b 67be 567b 9dbe
000000a0: c024 3f3e acc4 4bbe 2ba1 80be 0d3e 963e
000000b0: d121 d6be e2d6 85be 9aa9 f33c 32b9 cb3e
000000c0: 172b 2dbe 33ac 10bd fe16 92bc 1223 b7bd
000000d0: a635 eabe 4e39 22bf 0891 e1bd ef72 07be
000000e0: 6374 36be ed87 c7bc e8cd 713e b47e 953d
000000f0: daca 90bd 186c 49be
0.479033 0.39333558 -0.19130519 0.17742977 0.11344077 0.24292749 0.030092051 -0.056968242
0.94843733 0.3177464 -0.2999303 0.26496047 0.21239321 0.11824357 -0.048199583 0.2775186
0.024199951 0.23565027 -0.44386858 -0.45469397 0.030751968 -0.32150066 0.15609248 0.06310944
0.26655993 -0.026939856 0.14938101 0.21576338 -0.009414884 0.11216587 0.3442662 -0.100151695
0.391674 0.01729934 -0.041842088 -0.15503505 -0.20975444 -0.27299917 -0.22617991 -0.3075816
0.18666363 -0.19899243 -0.2512296 0.29344216 -0.41822675 -0.26140505 0.029743958 0.3978973
-0.16910969 -0.035320472 -0.01783323 -0.08942236 -0.45744056 -0.6336869 -0.11013991 -0.13227437
-0.17817836 -0.024356807 0.23613703 0.07299557 -0.07069941 -0.1967014
