assignment3_results/models/fed_c2e5.pth (torch, 502610 bytes, 6 tensors)

layer1.weight f4 [128, 784]
0	0xbd03c735	-0.0321724
1	0xbce57079	-0.028007733
2	0xbcc56e8c	-0.024100564
3	0xbd06eb7f	-0.03293943
4	0xbd41519c	-0.04719697
5	0xbcfaf8c0	-0.030636191
6	0xbd03f5a8	-0.032216698
7	0xbd61fc64	-0.05517234
8	0xbbd2d0ce	-0.006433583
9	0xbd1ddd7a	-0.038541295
10	0xbce1fb3c	-0.027585618
11	0xbd061f17	-0.032744493
12	0xbd237c18	-0.039913267
13	0xbce3b17b	-0.02779459
14	0xbba15913	-0.0049239486
15	0xbcd13436	-0.025537591
16	0xbd48b3c0	-0.048999548
17	0xbd3d565a	-0.04622493
18	0xbcd688aa	-0.026188213
19	0xbc55e2f6	-0.0130546
20	0xbd20fd33	-0.03930397
21	0xbd1d3e62	-0.03838957
22	0xbd1b3a69	-0.0378975
23	0xbd1cd00a	-0.03828434
24	0xbc9d7d2c	-0.019224726
25	0xbd5b17ac	-0.053489372
26	0xbd015a40	-0.03158021
27	0xbd7bace8	-0.061444193
28	0xbc8b32e2	-0.016992036
29	0xbd3cf31e	-0.046130292
30	0xbd0c18fa	-0.034203507
31	0xbd62e948	-0.055398256
32	0xbd20639c	-0.039157495
33	0xbd71e55e	-0.059056632
34	0xbcd860c4	-0.026413329
35	0xbd8bcd97	-0.068263225
36	0xbd0b9b38	-0.034083575
37	0xbce26ac6	-0.027638804
38	0xbcf2cb1d	-0.029637868
39	0xbc052ff1	-0.008129106
40	0xbc784766	-0.015153741
41	0xbccd0cc4	-0.025030501
42	0xbbb09a84	-0.0053895134
43	0xbcc36750	-0.023852974
44	0xbc8c7c35	-0.01714907
45	0x3cc69f98	0.024246022
46	0x3d223040	0.039596796
47	0x3d246312	0.040133543
48	0x3af45bb4	0.0018643052
49	0xbc4ecd82	-0.012622239
50	0xbbe08e98	-0.006852936
51	0xbd21dc96	-0.039517008
52	0xbc99d0a4	-0.018776245
53	0xbd1f60ee	-0.0389108
54	0xbd466018	-0.048431486
55	0xbd3b9c64	-0.045803443
56	0xbcb7a352	-0.022416744
57	0xbc8868da	-0.01665156
58	0xbd18f868	-0.037346274
59	0xbd15e895	-0.03659876
60	0xbd0ae358	-0.03390822
61	0xbce72f80	-0.028220892
62	0xbc89d23a	-0.016823877
63	0xbce2dc4c	-0.027692936
64	0xbcabad72	-0.020956729
65	0xbb5cad4e	-0.0033672634
66	0xbd0fb9af	-0.03508919
67	0xbd379cc8	-0.044827253
68	0xbc4e112d	-0.012577337
69	0xbcb51742	-0.022105817
70	0xbd1fdb7c	-0.039027676
71	0xbc4010c6	-0.011722749
72	0x3d6ed425	0.058307786
73	0x3cf15885	0.029461155
74	0x3cd1062c	0.025515638
75	0x3c8663a0	0.016404927
76	0x3c8b8796	0.017032426
77	0xbbd62987	-0.006535712
78	0xbd473c85	-0.0486417
79	0xbc599dc4	-0.013282243
80	0xbc978ee8	-0.01850076
81	0xbd1fc05e	-0.039001815
82	0xbccccbec	-0.024999581
83	0xbcb8a260	-0.022538364
84	0xbcf29cb8	-0.029615745
85	0xbc91f14e	-0.017815258
86	0xbce9da62	-0.028546516
87	0xbd546c92	-0.051861353
88	0xbcdcca5a	-0.026951957
89	0xbd2af000	-0.041732788
90	0xbd1a17f6	-0.037620507
91	0xbd2b9e78	-0.041899174
92	0xbc47a3ea	-0.012185076
93	0xbd426a48	-0.04746464
94	0xbca6ff5c	-0.020385437
95	0xbbb9f47f	-0.005674898
96	0xbd596e24	-0.053083554
97	0xbdad8d07	-0.084741645
98	0xbbddabbc	-0.006764857
99	0x3d408cde	0.04700934
100	0x3d5ebc62	0.054378875
101	0x3c848618	0.016177222
102	0x3be81dd0	0.007083632
103	0x3c7e90c8	0.015537448
104	0x3cde3dcf	0.027129082
105	0x3db1dbdc	0.08684513
106	0xbd199222	-0.03749288
107	0xbcd85a0c	-0.026410125
108	0xbd6158b6	-0.055016242
109	0xbd243304	-0.040087715
110	0xbd2c832c	-0.042117283
111	0xbd831d4c	-0.06402072
112	0xbd059482	-0.03261233
113	0xbc6e49ec	-0.014543992
114	0xbd314aaa	-0.043284096
115	0xbd31bfe8	-0.043395907
116	0xbd1f2ff8	-0.038864106
117	0xbd76039e	-0.060062043
118	0xbd5266d6	-0.051367603
119	0xbd5b28b0	-0.0535056
120	0xbd5f1d6a	-0.05447141
121	0xbba285b7	-0.0049597877
122	0xbb983596	-0.00464506
123	0xbd50fe8e	-0.051024012
124	0xbcde527c	-0.027138941
125	0x3cef1018	0.029182479
126	0x3d74556c	0.059651777
127	0x3db850b2	0.089997664
128	0x3d974735	0.073866285
129	0xbd0a052d	-0.033696342
130	0xbdb24932	-0.08705367
131	0xbd88c196	-0.066775486
132	0x3d83b488	0.06430918
133	0x3da02cca	0.07821043
134	0x3d078a70	0.03309101
135	0xbcdf5f86	-0.027267229
136	0xbd919954	-0.07109323
137	0xbd4959b6	-0.04915782
138	0xbd6a482a	-0.057197727
139	0xbd2fc0da	-0.042908527
140	0xbcf1907e	-0.029487845
141	0xbd54e8b0	-0.05197972
142	0xbcf8b334	-0.030358888
143	0xbcdcf316	-0.026971381
144	0xbd11f8cc	-0.03563766
145	0xbd641093	-0.05567987
146	0xbcdbcb39	-0.026830303
147	0xbc8257e2	-0.015911046
148	0xbd353820	-0.044242978
149	0xbd14780c	-0.036247298
150	0x3d46cef2	0.048537202
151	0xbdaad36e	-0.08341108
152	0x3c932a40	0.017964482
153	0x3e148a43	0.14505868
154	0x3e273392	0.16328266
155	0xbc46ed0c	-0.012141477
156	0xbdd0ebfc	-0.102012604
157	0xbe5d1bd8	-0.21592653
158	0xbe74850e	-0.23878881
159	0xbe0b86c0	-0.13625622
160	0xbb1a4424	-0.002353915
161	0x3da597d2	0.08085598
162	0x3cdabe72	0.02670214
163	0xbd84be6f	-0.06481635
164	0xbdb11d89	-0.086482115
165	0xbdd64220	-0.10461831
166	0xbdd50882	-0.10402013
167	0xbcf61ca2	-0.03004295
168	0xbd0e78d4	-0.0347832
169	0xbcdf454c	-0.027254723
170	0xbd709498	-0.05873546
171	0xbc3b9986	-0.011450177
172	0xbd21203c	-0.03933738
173	0xbd3368f0	-0.043801248
174	0xbd2e3e10	-0.042539656
175	0xbb2c95e8	-0.0026334468
176	0xbd9360ee	-0.07196222
177	0xbdebe45b	-0.11518165
178	0xbd7fee40	-0.062483072
179	0x3dbee373	0.09320726
180	0x3ebc7197	0.36805412
181	0x3edd9c49	0.432833
182	0x3f249d61	0.6430264
183	0x3f1bef95	0.6091245
184	0xbd89e8a2	-0.06733824
185	0xbe43adc8	-0.19109261
186	0xbccf60fa	-0.025314797
187	0x3dc71dec	0.09722504
188	0x3c0a1d46	0.008429831
189	0xbcedfd9e	-0.029051598
190	0x3daf5d90	0.085627675
191	0xbda040ca	-0.078248575
192	0xbde3987a	-0.11113067
193	0xbdf43aba	-0.11925264
194	0xbdce8191	-0.100833066
195	0xbd0420d1	-0.03225786
196	0xbd9b4dee	-0.07583223
197	0xbd459766	-0.048240088
198	0xbd379d1c	-0.044827566
199	0x3c810be8	0.015752748
200	0xbca7de50	-0.020491749
201	0xbd0d53ef	-0.034503873
202	0xbdc5fefd	-0.09667776
203	0x3ca28c8c	0.019842409
204	0x3d493cb8	0.04913017
205	0x3dfeb7f2	0.124374285
206	0x3e65897a	0.22415724
207	0xbdc39acc	-0.095510095
208	0xbde1fc65	-0.110344686
209	0x3efd3c24	0.49459946
210	0x3f8d3579	1.1031944
211	0x3f1ccc33	0.61249083
212	0x3e689ffc	0.22717279
213	0x3d744f02	0.05964566
214	0x3cc8d9b6	0.024517875
215	0x3e31ed3a	0.17375651
216	0x3cb18856	0.021671455
217	0x3d5f535b	0.054522853
218	0x3df1e4aa	0.11811192
219	0xbd5e9f48	-0.05435112
220	0xbde38226	-0.11108808
221	0xbd98a05a	-0.0745246
222	0xbd493b96	-0.04912909
223	0xbd5a3bf2	-0.053279825
224	0xbd531aee	-0.051539354
225	0xbd94e10e	-0.07269488
226	0xbcdeb156	-0.02718417
227	0x3ce0a966	0.027424525
228	0xbd34efbc	-0.04417394
229	0xbd0d1ce2	-0.034451373
230	0xbddfe106	-0.10931592
231	0x3c37e454	0.011223871
232	0xbd8096e7	-0.06278782
233	0x3e31e2b0	0.1737163
234	0xbd0513d8	-0.032489628
235	0xbe69541e	-0.22785994
236	0xbd003943	-0.03130461
237	0x3f1f8c04	0.6232302
238	0x3f305aee	0.6888875
239	0x3e8c6135	0.27417913
240	0x3f21fd94	0.63277555
241	0xbe477df5	-0.19481643
242	0x3d25e3f0	0.04050058
243	0x3e165b90	0.14683366
244	0xbde0c450	-0.10974944
245	0x3c8a4a3e	0.016881105
246	0x3c178400	0.00924778
247	0xbcbbb322	-0.022912566
248	0xbd497728	-0.049185902
249	0xbd76d0c6	-0.060257696
250	0xbc985da4	-0.018599339
251	0xbd669a14	-0.056299284
252	0xbd9d09e1	-0.076679
253	0xbd12135c	-0.035662994
254	0xbc1eb918	-0.0096876845
255	0xbb36d3d6	-0.002789726

layer1.bias f4 [128]
0	0xbd35f755	-0.044425327
1	0x3cc9806d	0.024597371
2	0x3c523d4c	0.012831997
3	0x3cd6c73e	0.026218053
4	0x3cc316e2	0.023814622
5	0xbd378ae8	-0.044810206
6	0xbcce1da5	-0.02516062
7	0xbb528c46	-0.0032127067
8	0xbd886798	-0.06660384
9	0x3c8e26ec	0.017352544
10	0xbd006d42	-0.031354196
11	0xbcd74bbc	-0.02628123
12	0x3d9a126c	0.07523045
13	0x3be544be	0.00699672
14	0x39cd0136	0.0003910155
15	0xbc34e01a	-0.011039758
16	0x3bd5175e	0.0065030297
17	0x3b5d9159	0.0033808558
18	0xbc02b3ce	-0.007977439
19	0x3c95d400	0.018289566
20	0xbcde4b3e	-0.027135488
21	0xbd485f1a	-0.04891882
22	0x3cf05a90	0.029340059
23	0x3a676672	0.0008827216
24	0x3c153078	0.009105794
25	0xbcc9c07e	-0.02462792
26	0xbd0c79e8	-0.034295946
27	0x3c5c6aae	0.013453169
28	0x3c62d282	0.013844134
29	0x3d02cba2	0.03193248
30	0x3d3f1e18	0.04665956
31	0x3b5af4ea	0.003341014
32	0xbda82818	-0.08210772
33	0xbce05c8a	-0.027387876
34	0xbcd2fbbe	-0.025754806
35	0xbd217be4	-0.039424792
36	0xbc8808dc	-0.016605787
37	0xbd69f144	-0.057114854
38	0xbbaa3b45	-0.0051950538
39	0x3d9cac18	0.07650012
40	0xbbdc29d2	-0.0067188526
41	0xbcf80248	-0.030274525
42	0xbd65e907	-0.056130435
43	0xbbffe1a9	-0.007808883
44	0xbb226a1b	-0.0024782482
45	0x3c3600dc	0.011108603
46	0xbc6ead7a	-0.014567727
47	0xbbaa12fc	-0.0051902514
48	0x3caa8506	0.020815384
49	0xbc617df8	-0.013762943
50	0x3c8ac012	0.01693729
51	0xbd020b32	-0.031748958
52	0xbd0e45ee	-0.03473466
53	0xbcab2350	-0.020890862
54	0x3cd66980	0.026173353
55	0x3ca1967e	0.01972508
56	0xbc1ff04a	-0.009761879
57	0x3c4b3a61	0.012404055
58	0xbba0ac60	-0.004903361
59	0xbc3b3ad8	-0.011427604
60	0xbd3b70fc	-0.045762047
61	0xbd652df0	-0.055952013
62	0xbc3a78d1	-0.011381344
63	0x3bbcd720	0.0057629496
64	0xbca1ee28	-0.019766882
65	0xbd34fd3c	-0.044186816
66	0xbc449987	-0.011999494
67	0xbccfd722	-0.025371138
68	0x3ca6f072	0.020378325
69	0xbc814128	-0.01577814
70	0x3be4ee88	0.006986443
71	0xbc633fa4	-0.013870154
72	0xbc5ec092	-0.013595717
73	0x3cc81f46	0.024428975
74	0x3cc7e676	0.024401885
75	0xb9dfdc9a	-0.00042698235
76	0x3b19976a	0.0023436197
77	0xbd81826a	-0.06323703
78	0xbc282826	-0.010263478
79	0xbd46455e	-0.048405997
80	0xbd182634	-0.03714581
81	0xbaf5dba0	-0.001875747
82	0xbd153dda	-0.03643594
83	0xbdb67440	-0.08908892
84	0xbd9282a6	-0.071538255
85	0x3dc0e85c	0.09419319
86	0x3adaf1f6	0.001670419
87	0xbc82c24c	-0.015961789
88	0xbcc1d8be	-0.023662921
89	0x3ba817ec	0.005129805
90	0xbd86ec56	-0.06588046
91	0x3c82baa6	0.015958142
92	0xbd75774e	-0.05992823
93	0xbd577536	-0.052602015
94	0xbce63104	-0.028099544
95	0xbd01fb75	-0.03173395
96	0xbcc469ba	-0.023976196
97	0xbb23c719	-0.0024990498
98	0xbd2dad1c	-0.042401418
99	0xbc751d86	-0.014960652
100	0x3c630ff4	0.013858784
101	0x3c021980	0.00794065
102	0x3c48e7b2	0.012262272
103	0xbd5eff56	-0.054442726
104	0xbc95da5c	-0.018292598
105	0x3ba9103a	0.005159405
106	0x3c5a5016	0.013324758
107	0x3b5af760	0.0033411607
108	0x3d4ded10	0.05027491
109	0xbd6b2f74	-0.0574183
110	0xbd0239f0	-0.031793535
111	0xbd8bd7fa	-0.06828304
112	0xbcca1dec	-0.024672471
113	0x3cb2eacc	0.021840475
114	0x3ce4bf9a	0.027923394
115	0x3c9fd832	0.01951227
116	0xbcaf4fb8	-0.021400318
117	0xbd6a8774	-0.057258084
118	0xbca4788e	-0.020077016
119	0x3ca35710	0.019938976
120	0x3cbeefce	0.023307707
121	0xbb0b1bc8	-0.0021226276
122	0xbd421e86	-0.04739239
123	0xbd7259a3	-0.059167515
124	0xbc8edfb4	-0.017440654
125	0xbd6240ec	-0.055237696
126	0xbc8b7868	-0.017025188
127	0x3c305512	0.01076247

layer2.weight f4 [128, 128]
0	0xbd37ff9c	-0.044921502
1	0x3d4a8bcc	0.049449727
2	0x3d5cb200	0.05388069
3	0x3d9c1dc8	0.07622868
4	0x3d069a58	0.032862037
5	0xbcbc2d52	-0.02297083
6	0x3e0256fa	0.12728491
7	0xbc798b0e	-0.015230907
8	0x3ee9aac0	0.45638084
9	0x3e597d37	0.21239172
10	0x3cc15cbe	0.023603793
11	0x3d563f6a	0.05230657
12	0x3de79f04	0.11309627
13	0xbbf0bbe8	-0.007346619
14	0xbd183dce	-0.037168317
15	0x3d232c16	0.039836966
16	0xbd13c1a6	-0.03607335
17	0xbd978956	-0.073992416
18	0xbcbea5d0	-0.023272425
19	0xbad7f992	-0.0016477576
20	0x3c6e47b4	0.014543463
21	0x3e9b0e49	0.30284336
22	0x3cea16a6	0.028575253
23	0x3c93e320	0.018052638
24	0xbd80e111	-0.06292928
25	0x3defdd9c	0.117121905
26	0xbebb9615	-0.3663794
27	0xbd19b9e6	-0.037530802
28	0x3d0c09d0	0.034189045
29	0x3d22c5b1	0.039739314
30	0xbe8eb48c	-0.2787212
31	0xbc9f355c	-0.019434623
32	0x3c10ac82	0.008830192
33	0xbe129a0e	-0.1431658
34	0x3d03e75a	0.032203056
35	0xbcfde39c	-0.030992322
36	0x3ea35d1f	0.31906983
37	0x3cc29c6e	0.023756232
38	0xbdacf50c	-0.084451765
39	0x3e9537f4	0.2914425
40	0x3e39fad3	0.18162088
41	0x3d6cd9f8	0.05782506
42	0x3d86c177	0.06579869
43	0x3e0d1b66	0.13779983
44	0xbe1bc02a	-0.15210024
45	0xbe29720e	-0.16547415
46	0x3c9d2950	0.019184738
47	0xbb205e6e	-0.0024470347
48	0xbdac8864	-0.08424452
49	0xbd6bf0fc	-0.057602867
50	0xbd85bdf4	-0.06530371
51	0xbe11bf26	-0.14233074
52	0xbbbbe13c	-0.005733637
53	0x3dbb7da2	0.09154822
54	0x3f010e24	0.504122
55	0x3c6b56a8	0.014363922
56	0xbba96efc	-0.005170701
57	0xbcbe1a03	-0.023205763
58	0x3d9b17ce	0.075729
59	0x3d33fe8e	0.043943934
60	0x3d5161df	0.051118728
61	0xbe42fe3c	-0.19042295
62	0xbdf3d33a	-0.11905523
63	0xbd48bfd2	-0.04901106
64	0xbe680798	-0.22659147
65	0x3e6cba63	0.23117976
66	0x3e59c122	0.2126508
67	0x3ccff78e	0.025386598
68	0xbe1f7b38	-0.15574348
69	0x3c6ec030	0.014572188
70	0x3cf6f759	0.030147241
71	0xbf0691b6	-0.5256609
72	0xbd9c5880	-0.076340675
73	0x3e0b0524	0.1357618
74	0x3d4568a8	0.04819551
75	0xbeba411e	-0.36377805
76	0xbec37874	-0.38177836
77	0x3eba67e8	0.364074
78	0xbb85b4fc	-0.004080413
79	0xbdc2b42b	-0.095070206
80	0xbeb4449a	-0.3520859
81	0x3b7002ba	0.003662272
82	0xbdb21a72	-0.0869645
83	0x3d97f7cf	0.074203126
84	0x3e5fa2fa	0.21839514
85	0x3e854e64	0.2603637
86	0xbd5eb1ac	-0.05436866
87	0xbe754122	-0.23950627
88	0x3e08362c	0.13301915
89	0x3b3ddc32	0.0028970358
90	0x3e6401de	0.22266337
91	0x3d54fce8	0.051999003
92	0x3e066c38	0.1312722
93	0xbdd28c12	-0.102806225
94	0x3ce503e8	0.027955964
95	0xbe0ae5f4	-0.13564283
96	0xbe1c8324	-0.15284401
97	0xbda5e5a0	-0.08100438
98	0xbe739a95	-0.23789437
99	0xbe0120ac	-0.1261012
100	0xbea3f4bc	-0.32022655
101	0xbd25a91e	-0.040444486
102	0x3cb7aa6e	0.022420134
103	0xbe9b99c6	-0.30390757
104	0x3d3b394a	0.045708932
105	0xbba25597	-0.0049540508
106	0x3c08517c	0.008320209
107	0x3b9f7294	0.0048659537
108	0x3d87d9d2	0.06633343
109	0x3ba50e96	0.005037139
110	0xbda83010	-0.08212292
111	0xbd1609b0	-0.036630332
112	0x3e260994	0.16214591
113	0x3d89b470	0.06723869
114	0xbc86fb74	-0.016477324
115	0x3d34e4ff	0.0441637
116	0x3be3a562	0.0069472054
117	0x3e98105e	0.29699987
118	0x3e9ae824	0.30255234
119	0xbe06d2c8	-0.13166344
120	0xbd4bc272	-0.049745984
121	0xbb579fca	-0.0032901638
122	0xbe98912a	-0.2979825
123	0x3dca81d8	0.09888047
124	0xbc597f90	-0.013275042
125	0xbe1ac24a	-0.15113178
126	0xbe7ecef8	-0.2488364
127	0x3e1531b1	0.14569737
128	0xbe5ae860	-0.21377707
129	0x3e626246	0.22107801
130	0xbce70cfe	-0.028204437
131	0x3d91c962	0.07118489
132	0xbce23f24	-0.027617998
133	0xbd9ef2d0	-0.077611566
134	0x3dac9154	0.08426157
135	0xbcaf5dfe	-0.021407124
136	0xbc3be36c	-0.011467796
137	0xbc51e1a2	-0.012810143
138	0x3d274c56	0.040844284
139	0x3e68526a	0.22687688
140	0x3e825104	0.25452435
141	0xbd50a338	-0.050936908
142	0xbd45ebe3	-0.048320662
143	0x3d9801c8	0.07422215
144	0x3c28f294	0.010311741
145	0xbdea318c	-0.114352316
146	0x3e9acafb	0.30232987
147	0xbd005b40	-0.031337023
148	0xbe87c5d4	-0.26518118
149	0xbf52f7b6	-0.82409227
150	0x3aae4544	0.0013295789
151	0x3d724414	0.059146956
152	0xbe180dba	-0.14848986
153	0xbcd597e0	-0.026073396
154	0xbd0ecec4	-0.034865156
155	0xbd83ff74	-0.06445208
156	0xbd9c03ba	-0.07617898
157	0xbc2d788e	-0.0105878245
158	0x3eb4d77e	0.35320657
159	0x3b8a95f6	0.0042293025
160	0xbe547a3a	-0.2074975
161	0x3b3e2413	0.00290132
162	0x3b872ea0	0.004125431
163	0xbcb0feba	-0.021605838
164	0xbe03e7c6	-0.12881383
165	0xbd4d1278	-0.05006644
166	0x3cf6f228	0.030144766
167	0x3e706edf	0.23479794
168	0x3e917349	0.28408268
169	0x3e31db78	0.17368877
170	0xbdec7cda	-0.11547251
171	0x3dc405a8	0.09571391
172	0x3e94ebe8	0.29086232
173	0x3e6389e0	0.22220564
174	0xbc34fd9d	-0.011046794
175	0x3d81680c	0.063186735
176	0x3cfd86f0	0.030948132
177	0xbdb7f404	-0.08982089
178	0xbc8a7a68	-0.016904071
179	0xbc20c59c	-0.009812739
180	0xbce392b4	-0.027779914
181	0x3f1a1f96	0.60204446
182	0x3c6f0158	0.014587723
183	0xbd6fc5e4	-0.058538333
184	0x3b214728	0.0024609063
185	0xbda7472c	-0.08167872
186	0xbca4b176	-0.020104151
187	0x3e5af3bc	0.2138204
188	0x3e3798c0	0.17929363
189	0xbd5d74d0	-0.05406648
190	0xbd76ba98	-0.060236543
191	0x3cfb3a04	0.030667312
192	0xbf118227	-0.5683922
193	0xbe7dc648	-0.2478267
194	0xbea57e45	-0.32322899
195	0xbabc2682	-0.0014354738
196	0xbd89360f	-0.06699764
197	0x3cfe3fc2	0.031036261
198	0x3d0c9e66	0.034330748
199	0x3de3ae4c	0.11117229
200	0xbe0315f4	-0.12801343
201	0xbdef4a8b	-0.1168414
202	0x3d207374	0.039172605
203	0x3cc1394a	0.023586888
204	0x3e154d64	0.14580303
205	0x3effbe7f	0.49950024
206	0xbcf84cc5	-0.030310044
207	0x3d46fd44	0.048581377
208	0x3e2c4d38	0.16826332
209	0x3d83bf5c	0.06432983
210	0xbe3b50ac	-0.18292493
211	0x3d842a4a	0.064533785
212	0xbe18968c	-0.14901179
213	0xbd14130c	-0.036150977
214	0xbdaa5ea6	-0.08318834
215	0x3dc193f8	0.09452051
216	0xbcbf7ede	-0.023375925
217	0x3c414aa8	0.011797585
218	0xbc8c0cb6	-0.017095905
219	0xbd568cb7	-0.05238029
220	0xbeb6ce58	-0.35704303
221	0x3e36e81e	0.17861983
222	0xbdf5b41c	-0.11997244
223	0x3e2298a4	0.1587854
224	0xbea77160	-0.32703686
225	0xbde8a7e4	-0.113601476
226	0xbe81a6f8	-0.253227
227	0xbd0cd704	-0.034384742
228	0x3d9ddec0	0.07708502
229	0xbc73c062	-0.014877411
230	0x3d4dc849	0.050239835
231	0xbe3ad198	-0.18244016
232	0xbd67b8c0	-0.056572676
233	0xbf28e9bd	-0.65981656
234	0xbc915686	-0.017741453
235	0x3c9c8134	0.019104578
236	0x3e657178	0.22406566
237	0xbe431a2e	-0.19052956
238	0x3d08e3e6	0.033420466
239	0xbe80acb3	-0.2513176
240	0x3da3a88c	0.07991132
241	0xbd4651a6	-0.04841771
242	0x3e978088	0.2959025
243	0xbb935118	-0.004495751
244	0xbd616a4c	-0.055033013
245	0x3e281e3e	0.16417786
246	0xbdbcc93d	-0.09218071
247	0xbd90c474	-0.070687205
248	0xbcfdd508	-0.03098537
249	0xbd4e4b20	-0.050364614
250	0xbe4ba070	-0.19885421
251	0x3e96bf24	0.29442704
252	0xbd55dbd8	-0.052211612
253	0xbf083382	-0.53203595
254	0x3db89798	0.09013289
255	0xbdaff214	-0.085910946

layer2.bias f4 [128]
0	0xbd8aceb2	-0.06777705
1	0xbea204aa	-0.31644183
2	0xbef406f4	-0.47661555
3	0xbe581a2c	-0.21103734
4	0x3e671f68	0.22570574
5	0x3f3e9642	0.74448025
6	0x3dc5b6e6	0.09654026
7	0xbec0ccfc	-0.3765639
8	0xbe5ab60a	-0.21358505
9	0xbeec7da0	-0.46189594
10	0x3f66d0db	0.9016244
11	0x3c9923f9	0.01869391
12	0x3f3094ae	0.6897687
13	0x3eb944fe	0.3618545
14	0x3ecc9420	0.3995676
15	0xbf4aaefe	-0.79173267
16	0xbea1b6c8	-0.31584764
17	0xbd8d64f0	-0.06904018
18	0x3effc552	0.4995523
19	0xbcd293a2	-0.025705162
20	0x3ed2c8fc	0.41168964
21	0x3eeb8140	0.45997047
22	0x3f3c419c	0.7353761
23	0x3e3e0478	0.18556392
24	0xbe921146	-0.28528804
25	0xbed33149	-0.4124854
26	0x3efe0102	0.49610144
27	0xbe43ea14	-0.19132262
28	0x3e876378	0.26443076
29	0x3e233ccc	0.15941161
30	0x3d4cee72	0.050032087
31	0xbca8d410	-0.020608932
32	0x3d10673a	0.035254695
33	0x3da2eae6	0.079549596
34	0xbece5138	-0.4029634
35	0xbe741702	-0.23836902
36	0x3df6ba4a	0.120472506
37	0x3ea67ab7	0.325155
38	0xbe224656	-0.15847144
39	0x3ea8090c	0.32819402
40	0xbe86fc88	-0.2636454
41	0xbd9e5dac	-0.0773271
42	0xbf2f0ef2	-0.6838218
43	0xbe89d420	-0.2691965
44	0x3eeb717e	0.45985025
45	0xbe8f0f7c	-0.279415
46	0xbec9bc75	-0.39401594
47	0xbe4fd406	-0.20295724
48	0xbd9332c4	-0.07187417
49	0xbd33dd0c	-0.04391198
50	0xbf039546	-0.5139965
51	0x3eb4c03e	0.3530292
52	0x3e8c0bf0	0.27352858
53	0xbe9df466	-0.30850524
54	0x3f950142	1.1641009
55	0x3ec81446	0.39077967
56	0xbe4824fc	-0.19545358
57	0xbe8c4f18	-0.27404094
58	0xbd290784	-0.041266933
59	0x3f4eed61	0.8083096
60	0x3e86c680	0.26323318
61	0x3eee8528	0.46585965
62	0xbe69ebc7	-0.22843848
63	0xbe5eab12	-0.21744946
64	0xbd6ecad3	-0.058298897
65	0xbc903e6c	-0.01760789
66	0x3f2f2097	0.68409103
67	0x3f0f07a6	0.55871046
68	0xbe7e68a4	-0.24844605
69	0x3ecea92a	0.40363437
70	0x3e9bfd79	0.30466822
71	0xbdfde542	-0.12397243
72	0x3ea3c9d6	0.31989926
73	0x3d27abb0	0.04093522
74	0xbe4695b8	-0.1939305
75	0xbf6dee84	-0.9294207
76	0x3e8314bf	0.25601766
77	0xbe985134	-0.29749453
78	0xbe200322	-0.15626195
79	0x3e832887	0.25616857
80	0xbe8fc7ea	-0.2808221
81	0x3e101f2a	0.14074388
82	0xbb74f9aa	-0.0037380257
83	0x3ebd7bf2	0.37008625
84	0xbefc7ee6	-0.49315566
85	0xbe3ce75e	-0.18447635
86	0x3f60cbfd	0.8781126
87	0x3e0af7d3	0.135711
88	0xbd3b66f2	-0.045752473
89	0x3f1dd988	0.6166005
90	0x3e9f0d8c	0.31065023
91	0xbdfd2536	-0.12360613
92	0x3e32bd6a	0.17455068
93	0x3e2c5e66	0.16832885
94	0xbd30cb46	-0.043162607
95	0xbf0e6161	-0.5561734
96	0x3f48b304	0.78398156
97	0xbbe9c87a	-0.0071344944
98	0xbe2a16f2	-0.16610315
99	0x3f58f452	0.84747803
100	0x3e04e09b	0.12976305
101	0xbe00a968	-0.12564623
102	0x3ec8058c	0.39066732
103	0xbf196b6d	-0.59929544
104	0xbe9ff4a2	-0.31241328
105	0x3e190482	0.14943126
106	0x3f024db6	0.5089983
107	0x3ef26b8f	0.47347686
108	0xbdfbd609	-0.12296683
109	0x3e8cf969	0.27534035
110	0xbe51bafa	-0.20481482
111	0xbe082bcc	-0.13297957
112	0x3f57876e	0.84191024
113	0xbea84744	-0.3286687
114	0xbf21c271	-0.6318732
115	0xbe9a5477	-0.30142567
116	0x3e901c8e	0.28146785
117	0x3d8fc7ae	0.07020508
118	0xbd246106	-0.04013159
119	0x3e81690e	0.25275463
120	0xbe87161d	-0.2638406
121	0x3e276de8	0.1635052
122	0x3e594b61	0.21220161
123	0xbe472ac5	-0.19449909
124	0x3f122028	0.57080317
125	0xbeea4c54	-0.4576136
126	0x3e8e2eb4	0.27770007
127	0xbe889b02	-0.26680762

layer3.weight f4 [62, 128]
0	0xbea9ff00	-0.33202362
1	0x3d27644a	0.040867127
2	0x3eae0852	0.33990723
3	0xbeb6f031	-0.35730127
4	0x3eca9c6a	0.3957246
5	0xbe0031ae	-0.12518951
6	0x3e2a2738	0.16616523
7	0xbebf4c30	-0.37362814
8	0xbdf5b985	-0.11998276
9	0xbe5a9a6c	-0.2134797
10	0x3e9f5b15	0.31124178
11	0x3e8fce1a	0.2808693
12	0xbf374256	-0.71585596
13	0xbdbadf9e	-0.09124683
14	0x3f0e638c	0.55620646
15	0xbe2b25ec	-0.16713685
16	0x3e5409a6	0.20706806
17	0xbf021b78	-0.50823164
18	0xbe471f63	-0.19445567
19	0x3e81ff9d	0.2539033
20	0x3e813dad	0.25242367
21	0x3ebd7e7b	0.3701056
22	0x3eb8c4c2	0.36087614
23	0x3ea69192	0.32532936
24	0xbecbd570	-0.39811277
25	0xbd8b3fdb	-0.06799289
26	0xbe1afab2	-0.15134695
27	0xbe155d48	-0.14586365
28	0xbe777068	-0.24163973
29	0x3dff4ea9	0.12466175
30	0xbdc3732e	-0.09543453
31	0x3de4bcd2	0.11168827
32	0x3e078ac1	0.13236524
33	0xbf0ae0d0	-0.54249287
34	0xbd36a56a	-0.044591345
35	0xbea77330	-0.3270507
36	0x3c081028	0.008304633
37	0x3f17f1a8	0.59353113
38	0xbde0ef34	-0.109831244
39	0xbe565378	-0.20930278
40	0x3e0ad5b2	0.13558081
41	0x3da370a8	0.07980472
42	0x3d84401a	0.06457539
43	0x3eb7df43	0.35912523
44	0xbdbdac81	-0.09261418
45	0xbea770ea	-0.32703334
46	0x3f02d675	0.51108485
47	0x3e0e6866	0.13907012
48	0xbdfd2d70	-0.12362182
49	0xbee505ca	-0.4473098
50	0x3e5daad6	0.216472
51	0x3e569871	0.2095659
52	0x3ea2f858	0.31830096
53	0xbedce5a2	-0.43143946
54	0x3f2aee0e	0.6676949
55	0x3d7ce864	0.061745062
56	0xbe081830	-0.13290477
57	0xbef8b2e0	-0.4857397
58	0x3ec7e5d2	0.39042526
59	0x3e3eacb2	0.18620566
60	0x3e2c9f99	0.16857757
61	0xbdd3d3d2	-0.10343136
62	0x3e36f152	0.17865494
63	0xbf06d5f2	-0.52670205
64	0xbd5ec0e8	-0.05438319
65	0x3e20183a	0.15634242
66	0x3ea129a8	0.31477094
67	0xbec4d1bc	-0.38441265
68	0xbeaf5558	-0.342448
69	0x3f4a0ef0	0.7892904
70	0xbe9c3cdf	-0.3051519
71	0x3e8d29f5	0.27571073
72	0xbe974750	-0.29546595
73	0xbe8c42e2	-0.27394778
74	0xbd9b5980	-0.0758543
75	0xbe3ab67e	-0.18233678
76	0x3ede5408	0.43423486
77	0xbf054540	-0.5205879
78	0xbf026657	-0.5093741
79	0x3d9c178a	0.07621677
80	0xbee1fa3b	-0.44136223
81	0xbec3d915	-0.38251558
82	0x3e47974e	0.19491312
83	0xbc831c6f	-0.01600477
84	0x3ef49aa6	0.47774237
85	0x3bd6c288	0.0065539517
86	0x3e9c6ecc	0.3055328
87	0xbed39180	-0.41321945
88	0x3e840c38	0.25790572
89	0x3e57d0cb	0.21075742
90	0x3da1b1a2	0.07895209
91	0xbe9004a6	-0.28128546
92	0x3db9476c	0.09046826
93	0xbee0dc1b	-0.43917927
94	0xbe86bde4	-0.2631675
95	0xbe83e42a	-0.25760013
96	0xbdb462e7	-0.088079266
97	0xbeafce7c	-0.34337223
98	0xbe87e825	-0.265443
99	0x3e09b1e0	0.1344676
100	0xbe564f0e	-0.20928594
101	0x3d449a28	0.047998577
102	0xbec33194	-0.38123763
103	0x3ea1104e	0.31457752
104	0xbe928ce8	-0.28623128
105	0xbe4c76c8	-0.19967186
106	0x3f11add9	0.56905895
107	0x3df9f7ba	0.12205453
108	0x3cf038f2	0.029324029
109	0xbdbe560a	-0.092937544
110	0x3e9bdc28	0.30441403
111	0x3ed458ea	0.41474086
112	0xbe126f90	-0.1430037
113	0xbf174abe	-0.5909842
114	0xbe84c620	-0.25932407
115	0x3f6d774d	0.92760164
116	0xbed3919e	-0.41322035
117	0x3ee48f0c	0.44640386
118	0x3d8ea937	0.06965869
119	0x3e930747	0.2871649
120	0xbd8a8360	-0.06763339
121	0x3e17a737	0.14809881
122	0x3f21176c	0.62926364
123	0x3c7a4a7b	0.015276547
124	0x3f1e1b19	0.617601
125	0xbed55f78	-0.416744
126	0xbec299a6	-0.3800785
127	0xbdef0a36	-0.116718695
128	0xbf3603ac	-0.7109935
129	0x3b3da846	0.002893941
130	0x3e80c505	0.25150314
131	0xbe1b22bc	-0.15149969
132	0xbeae0c85	-0.33993927
133	0xbd770c9a	-0.060314752
134	0x3e97a0c8	0.29614854
135	0x3bf77db5	0.0075528272
136	0x3e2f5c06	0.17124948
137	0x3f0ed482	0.5579301
138	0xbc1dffa8	-0.009643473
139	0xbdd29b3b	-0.10283514
140	0x3f111eb4	0.56687474
141	0x3f1e7392	0.61895096
142	0x3ee4765a	0.44621545
143	0x3d09414b	0.033509534
144	0xbd30d34b	-0.043170255
145	0x3e6c4e90	0.23076844
146	0x3d7977a2	0.060905106
147	0xbda8dd2e	-0.08245312
148	0xbe85e4c2	-0.2615109
149	0x3d0617a9	0.032737408
150	0x3ee7fc66	0.45309752
151	0xbe95b956	-0.29242963
152	0x3e1974d9	0.1498598
153	0xbdec63ca	-0.11542471
154	0xbe533c7a	-0.20628539
155	0xbd784720	-0.060614705
156	0x3edeae1e	0.43492216
157	0xbe314818	-0.17312658
158	0xbe87e54b	-0.26542124
159	0x3f28277a	0.65685236
160	0x3e94ce8d	0.29063836
161	0x3d430587	0.047612693
162	0xbef873c2	-0.48525816
163	0x3de74704	0.11292842
164	0x3ed5937b	0.4171408
165	0xbd036f9a	-0.032088853
166	0x3d9af350	0.075659394
167	0xbe92dc4f	-0.28683707
168	0x3e549430	0.20759654
169	0xbddcab26	-0.107748315
170	0xbf13a408	-0.57672167
171	0x3edd5c7f	0.4323463
172	0xbee85881	-0.45380023
173	0x3daa8c76	0.08327572
174	0xbe2349e8	-0.15946162
175	0xbe25adec	-0.16179627
176	0x3e63b24f	0.22235988
177	0x3ebec748	0.37261415
178	0xbf122bd4	-0.57098126
179	0xbed8fdf0	-0.4238124
180	0x3ca378a1	0.019954981
181	0x3ee5b07a	0.44861203
182	0x3bff619e	0.0077936193
183	0xbeb2231e	-0.34792417
184	0xbeb07d5b	-0.3447064
185	0xbef5f504	-0.48038495
186	0x3ebcb494	0.3685652
187	0xbe0fb1b8	-0.14032638
188	0xbe9f41ab	-0.31104788
189	0xbca9a7f6	-0.020709973
190	0x3e34adca	0.1764442
191	0xbf133e54	-0.5751698
192	0xbb5d98b2	-0.0033812937
193	0x3e78d5e6	0.24300346
194	0xbf0c0ac8	-0.5470395
195	0xbec5bad6	-0.38619107
196	0xbd173742	-0.036917932
197	0xbe9800c2	-0.29688078
198	0x3ef4b80e	0.47796673
199	0x3d2907ae	0.04126709
200	0xbe13ec53	-0.1444562
201	0x3e0b3164	0.1359306
202	0xbb6c7914	-0.003608291
203	0xbec57896	-0.38568562
204	0xbf19024f	-0.5976915
205	0x3e720ea0	0.23638391
206	0x3c75080d	0.014955533
207	0xbeb4ca22	-0.35310465
208	0xbd94a924	-0.072588235
209	0x3f2d1c4c	0.676213
210	0xbe9c89d8	-0.30573916
211	0xbe283c08	-0.1642915
212	0x3dcba500	0.099435806
213	0xbe397682	-0.18111613
214	0x3f25ac2b	0.6471583
215	0x3e13390e	0.14377233
216	0xbec665b6	-0.38749474
217	0x3e50f68c	0.2040655
218	0x3e1632c1	0.14667799
219	0x3e40306a	0.18768468
220	0xbe5e568a	-0.217127
221	0xbeeea7e4	-0.46612465
222	0x3f2678b2	0.65027916
223	0x3cefe00a	0.029281635
224	0x3e229cc8	0.1588012
225	0x3e8bb208	0.27284265
226	0xbe3f81ae	-0.18701813
227	0x3e9f9c46	0.31173915
228	0x3ebf2ade	0.37337393
229	0xbba85626	-0.005137223
230	0xbe01a30e	-0.12659857
231	0xbec1e0aa	-0.37866718
232	0xbf0cbaf1	-0.5497275
233	0xbe6dc535	-0.2321976
234	0xbe963054	-0.29333746
235	0x3e9d440a	0.30715972
236	0xbf091284	-0.5354388
237	0x3c562b22	0.013071807
238	0x3e3f3fb6	0.18676648
239	0xbe6d131c	-0.23151821
240	0x3d807e76	0.062741205
241	0x3e38588c	0.18002528
242	0x3d71ad80	0.059003353
243	0xbf15a30a	-0.584519
244	0x3e7e1832	0.24813917
245	0x3e05d1d0	0.13068318
246	0x3ea81e88	0.32835793
247	0xbd8571be	-0.06515835
248	0x3e5513dc	0.20808357
249	0x3f2192e2	0.6311475
250	0xbf1d0494	-0.6133511
251	0xbf1224f0	-0.5708761
252	0x3f0ae68d	0.5425804
253	0x3e66a444	0.225236
254	0xbd132eb7	-0.035933223
255	0x3e800927	0.25006983

layer3.bias f4 [62]
0	0x3f323afd	0.6962126
1	0x3f18b0fd	0.5964506
2	0xbe83e344	-0.25759327
3	0x3e9d81ca	0.30763084
4	0x3e3b0b52	0.18266037
5	0x3ddf8873	0.109146975
6	0xbe178c6f	-0.14799665
7	0x3ceae538	0.028673753
8	0x3f870360	1.0547905
9	0x3ea6896b	0.32526717
10	0xbe8b924f	-0.27260062
11	0x3e8ba1d8	0.27271914
12	0x3ec9dada	0.39424783
13	0xbc88397e	-0.016628977
14	0xbe431977	-0.19052683
15	0x3ecabfde	0.39599508
16	0xbd77fb9e	-0.060542695
17	0x3e8ef25b	0.27919278
18	0xbf3c61d4	-0.73586774
19	0xbeec6fdf	-0.461791
20	0x3d8c2c9e	0.068444476
21	0xbe95fcee	-0.29294533
22	0xbd2b05a6	-0.041753434
23	0x3bef5594	0.007303903
24	0x3f0bcbf0	0.5460806
25	0x3ce77d3f	0.028257964
26	0x3dd85454	0.10562959
27	0x3e17c5ee	0.14821598
28	0x3de5f9aa	0.1122926
29	0x3e1d3098	0.15350568
30	0x3d91d3fb	0.0712051
31	0x3d6b7b8b	0.057490867
32	0x3eb152b8	0.34633422
33	0x3d7e98cc	0.062157437
34	0xbcd639bd	-0.026150579
35	0xbdecdff6	-0.11566155
36	0xbeb70bc8	-0.35751176
37	0xbe2dcd70	-0.169729
38	0xbdea2444	-0.11432698
39	0xbef1209a	-0.47095186
40	0x3e081d9c	0.13292545
41	0xbe58c716	-0.21169695
42	0xbe69f0d2	-0.22845772
43	0x3f006a61	0.5016232
44	0xbf02dcc0	-0.5111809
45	0xbe65c8d6	-0.22439894
46	0x3d4b3f16	0.04962071
47	0x3f5bfa20	0.85928535
48	0xbede73e6	-0.43447798
49	0xbd1944da	-0.037419178
50	0xbe348000	-0.17626953
51	0xbde73508	-0.11289412
52	0xbf1c8030	-0.611331
53	0xbf2ccbd8	-0.6749854
54	0xbcc91c6b	-0.024549684
55	0xbeaa9310	-0.33315325
56	0xbeb1cbdc	-0.34725845
57	0xbe69a46e	-0.22816631
58	0x3e883dc6	0.2660963
59	0xbdf7ded1	-0.12103046
60	0xbc3be69e	-0.011468558
61	0xbe868145	-0.262705
