assignment3_results/models/fed_c4e5.pth (torch, 502610 bytes, 6 tensors)

layer1.weight f4 [128, 784]
000000 b3 94 36 bc 8a 5c ce 38 94 26 fa 39 09 4b 10 3b
       -0.011143851 9.840082e-05 0.0004771246 0.002201738
000010 dc f6 d5 3b fe 26 11 bc a0 5f 93 3c 2e d4 ae ba
       0.006529672 -0.008859394 0.017989933 -0.0013338381
000020 2a 56 f5 3b c6 1b 6d bc a4 61 cc bb c0 5b 78 bb
       0.007487078 -0.014471954 -0.0062372256 -0.0037896484
000030 52 a4 58 bc 1e 30 d7 3b 28 bf 71 bc 76 2b 87 3b
       -0.013222771 0.0065670153 -0.014755048 0.004125054
000040 cc 7e d6 ba 7c 45 c0 3c 74 b9 f8 bb 1f bc be ba
       -0.0016364693 0.023470633 -0.007590467 -0.0014551914
000050 b4 86 2e bc b9 bd 3f bc 74 ef da 3b 6a f6 85 3b
       -0.010652233 -0.011702948 0.006681377 0.0040882127
000060 85 22 c7 3b 48 1f 81 3c 8c d2 52 bc dc 47 60 3c
       0.006077113 0.015761986 -0.012867581 0.013689008
000070 a4 43 4d 3c e8 34 a8 3a 6b c3 75 3c 77 78 9a 3c
       0.012528334 0.001283315 0.015000205 0.01885627
000080 13 da a4 3c 14 71 9d 39 64 a1 dd bb 80 ea dc bb
       0.020123517 0.00030029623 -0.006763624 -0.0067418218
000090 28 98 01 bc bc dd 55 3c 4c a6 33 bb 6c cb 99 3b
       -0.007909812 0.013053354 -0.0027412353 0.004693439
0000a0 02 a6 b9 bb b2 0c 8e 3c 02 1c 4a bb 7e 77 8d bc
       -0.0056655416 0.017340038 -0.0030839448 -0.017268892
0000b0 06 c4 fd bb 94 84 4c bc 06 d5 54 bb e0 b9 26 bc
       -0.007744315 -0.012482781 -0.0032475605 -0.010176152
0000c0 71 91 7c bc c0 c8 a3 3b 64 28 62 3c de 5e 5b bc
       -0.015415535 0.0049982965 0.013803575 -0.013389317
0000d0 38 fa f1 ba 0e 99 ef 3b 78 87 cf bc aa 2e 37 bc
       -0.0018461412 0.0073119467 -0.025333151 -0.011180559
0000e0 e9 52 9e 3b f0 ba 8e 3c 83 41 2a 3c b4 9b a3 bc
       0.004831661 0.017423123 0.010391596 -0.019971706
0000f0 a6 b3 89 3a 9c 8e 8c bb 59 ea 4d bc 7c 61 80 bb
       0.001050581 -0.0042894613 -0.01256808 -0.003917871
000100 77 00 37 bc 1c ab 8c 3a 6e 5b 67 bb a2 dd 26 3b
       -0.011169544 0.0010732147 -0.00353023 0.0025461693
000110 a4 e4 24 3b bf 72 d7 bb 50 c8 4d 3c c2 b9 1f bb
       0.0025160694 -0.006574958 0.012559965 -0.0024372195
000120 76 1d 4b bc 8a 25 eb 3b ea 69 31 ba 1a 5b 87 3b
       -0.012397161 0.007176106 -0.00067677966 0.004130733
000130 06 4a 30 3a b9 8d 45 3b 40 c8 18 3c 0e a5 98 ba
       0.00067248975 0.0030144288 0.009325087 -0.001164587
000140 98 2d 87 bb a9 66 a0 3b fa db 3e 3c ae a9 6b bc
       -0.0041253082 0.0048950505 0.011649126 -0.0143837165
000150 fc 86 41 3c 1a 95 88 3c e8 5e 68 bb 64 02 85 3b
       0.011811968 0.01667266 -0.003545696 0.004059123
000160 4a 84 a6 3b 74 7b a1 3a 18 11 44 bb e8 2f 2f ba
       0.005081688 0.0012320117 -0.0029917415 -0.0006682859
000170 e7 6f 3e 3c b4 cc 86 bc 9c b3 56 3b bb e9 cb bb
       0.011623359 -0.016455032 0.0032760864 -0.006222931
000180 c4 61 1b 3c b8 e3 f0 bb 48 e8 97 3c 5d 6b 36 bc
       0.009483758 -0.007351365 0.018543378 -0.011133996
000190 9c db 86 bc 8a 2a 49 3c ec 1d 34 3b 38 a2 e3 bb
       -0.01646214 0.0122782085 0.0027483655 -0.006946828
0001a0 02 37 34 3c 22 cf 92 ba 5c 99 df 3a 0a 11 ec 3b
       0.010999443 -0.0011200646 0.0017059254 0.0072041797
0001b0 13 ed 27 3c 68 15 48 3c 68 4b 42 3c 4f 97 c3 3b
       0.010249394 0.012212135 0.011858799 0.005968965
0001c0 9a 77 3f bc be 3f ed 3b 2e 27 e7 b9 ae d0 e0 bb
       -0.01168623 0.0072402647 -0.00044088945 -0.006860814
0001d0 83 d5 e0 bb ee a3 92 bb 60 74 d3 39 2f 12 cb ba
       -0.00686139 -0.0044751083 0.00040331762 -0.001549309
0001e0 d0 ee 99 bc 6e 65 80 ba 7d 17 28 bc a4 04 dc 3a
       -0.018790632 -0.0009795853 -0.010259506 0.0016786051
0001f0 66 5d e1 b9 2e c9 c5 bb e0 d6 75 3b aa f4 f6 b9
       -0.00042984931 -0.0060359454 0.0037512109 -0.00047103065
000200 06 5c ef bb 74 40 3e bc 51 cc cf 3b 22 f3 3e ba
       -0.007304671 -0.0116120465 0.006341495 -0.00072841544
000210 3a db 66 39 ba db 1f bb d0 ca ec 3b f0 d4 3f bc
       0.00022016178 -0.0024392442 0.0072263256 -0.011708483
000220 32 da 28 bc ae 02 95 39 4a 7d f0 bb 5a df a5 bc
       -0.010305928 0.0002842149 -0.0073391544 -0.020248104
000230 94 dd df bb 98 0b 1f 3c 38 4c d0 ba 7e 49 a2 ba
       -0.006831834 0.009707354 -0.0015891856 -0.0012381522
000240 16 53 06 bc c2 f2 6e 3c a6 d5 ef bb 24 f3 4c 3b
       -0.00819852 0.014584245 -0.00731917 0.0031272853
000250 bc 9c 3c bc af b1 14 bc 3a 7a 45 3a 86 e6 0c 3c
       -0.011511978 -0.009075566 0.0007533167 0.008599883
000260 41 0c 8f 3c 73 78 d6 bb b2 65 3b 3a 80 0a 99 ba
       0.017461898 -0.0065451204 0.00071486377 -0.0011676103
000270 ee d7 cd 3a 06 ba 86 3a 66 08 09 bc 76 5f e8 3b
       0.0015704611 0.0010278828 -0.008363819 0.007091458
000280 52 7d af bc 0e 1a e5 bc 53 7e 31 3a d0 3c 79 bc
       -0.021422062 -0.027966525 0.0006770838 -0.015212253
000290 3e 0a fd 3a c2 5e ed 3a 57 06 d2 3b 9c ce 6e bc
       0.001930542 0.0018109905 0.006409447 -0.014575627
0002a0 a3 af ad 3b 90 aa 21 bc a1 5f 1b 3c 92 61 0c bc
       0.0053004785 -0.009867325 0.009483249 -0.008568184
0002b0 70 c4 b2 3b 46 c8 05 bb 62 78 19 3c 58 24 17 3c
       0.005455546 -0.0020413562 0.00936708 0.009224974
0002c0 06 26 8b 3b b2 a4 70 bb 2e aa a5 3b 8f 5a 3d bc
       0.004246476 -0.003671926 0.0050556874 -0.011557235
0002d0 00 74 6c bc 36 8e 10 bc 98 eb c8 3c dc 53 ac 39
       -0.014431953 -0.008822968 0.024526402 0.00032868877
0002e0 42 e0 17 37 0a 92 fe ba f0 c3 1f 3c a2 66 c2 3b
       9.052515e-06 -0.0019422185 0.009751305 0.005932645
0002f0 c6 f1 61 bc 8a 49 98 3c 84 b6 16 3c 43 b2 2f 3c
       -0.013790553 0.018589754 0.009198789 0.010723653
000300 c4 2d 2e bc 22 5e 9b bc ff 53 4a 3c a1 9b c9 3a
       -0.010631029 -0.018965784 0.012349128 0.0015381464
000310 16 b1 20 3b da 79 1f 3b 16 b1 20 3b 4c 6b cb bb
       0.0024519614 0.0024334104 0.0024519614 -0.006207859
000320 51 5c 8c bc 50 dd 02 3c 52 19 8e bb 3a c2 ba bb
       -0.017133864 0.007987335 -0.0043365145 -0.005699423
000330 a8 5b 24 3c b1 36 d0 bb 4c 2d 9a 3c 06 7c 9a bc
       0.010031618 -0.006354176 0.018820427 -0.018857967
000340 ce 38 83 bb 14 9a 7f 3c 9e dc 34 bc ce 91 07 3c
       -0.0040045744 0.0156007 -0.011038927 0.008274509
000350 dc ae 20 bc 89 0c 6f bc 99 b9 ac ba 08 f1 d3 ba
       -0.009807315 -0.014590391 -0.0013177871 -0.0016169855
000360 4d 6c 63 3c e0 c7 8a bb 92 af 93 bc 8e 31 8a bc
       0.013880801 -0.0042352527 -0.018028054 -0.016869333
000370 a4 4d 15 3c 7c dc 9d ba ba b6 7b 3c 14 c6 05 3c
       0.009112749 -0.0012043859 0.01536339 0.008164901
000380 0e 2d 64 3b 4f da 07 bc 48 6f 1c bc 8e 7e 02 3c
       0.0034816894 -0.008291795 -0.009548016 0.007964743
000390 80 43 42 3c 2a de 1e 3c 88 f2 f4 bb a6 05 26 bc
       0.011856914 0.009696523 -0.007475201 -0.010133183
0003a0 de e3 1c 3c 7c 59 41 bc ac e1 8a bb 20 d5 e7 3b
       0.009575812 -0.01180112 -0.004238328 0.007074967
0003b0 c0 11 0c bc 62 9b 6d 3b 20 29 85 3b c8 ba e0 3a
       -0.008549154 0.0036255945 0.0040637404 0.0017145509
0003c0 12 ae af 3a 05 52 80 ba ea ed 25 bc 88 f7 7f 3b
       0.0013403317 -0.0009790069 -0.010127524 0.0039057452
0003d0 ae 18 19 bc 92 04 02 3c c4 6a 4d 3b 80 23 64 bb
       -0.009344263 0.00793566 0.0031344155 -0.0034811199
0003e0 d6 ab 1e 3b 81 26 a6 3b 78 95 96 3b 86 5c af ba
       0.002421131 0.005070508 0.004595455 -0.0013379015
0003f0 6e 2f 48 39 ca 47 15 3c 50 3d c0 3b 64 3b f5 3b
       0.00019091155 0.009111354 0.005866684 0.0074838866

layer1.bias f4 [128]
000000 98 e0 a1 ba b8 9b 9a 3b cb 8e 1f bc 00 77 d5 bc
       -0.0012350259 0.00471827 -0.009738634 -0.02605772
000010 be f4 93 3c 4e ec 76 3c dc de 78 bc 23 e3 ae 3c
       0.018061038 0.015070988 -0.015189853 0.021348542
000020 3a 81 c6 bc ec 8c 12 3c 5b cd db bc 9f 2e 6e 3c
       -0.024231542 0.008944731 -0.02683132 0.0145374825
000030 dc d2 58 3b f0 77 35 38 f9 4f f1 bc 4a bc 42 bc
       0.0033084666 4.3265463e-05 -0.02945708 -0.011885712
000040 08 78 46 bd 92 4b 13 bc ff 39 8b bd a7 3f a1 bc
       -0.048454314 -0.008990185 -0.06798171 -0.019683672
000050 58 7d ed bb 76 80 2f 3c 9a 45 4e bd c6 cd 9c bc
       -0.007247608 0.01071178 -0.050359346 -0.01914109
000060 f6 40 90 3b 76 a5 d8 bc 58 94 a1 bc 8e 9e bc 3c
       0.004402275 -0.026446085 -0.019724056 0.023024824
000070 e5 88 0a bd 7f 67 81 bd 09 e2 40 bd 1e d0 c8 bc
       -0.03382196 -0.063185684 -0.047090564 -0.0245133
000080 28 7f 14 bb 13 44 fa 39 42 9b 0d bc 2a fd 99 3c
       -0.00226588 0.00047734435 -0.008642973 0.018797476
000090 e3 21 85 bd 92 f5 e5 3b 06 63 f5 ba 32 ff fa 3b
       -0.06500604 0.0070177997 -0.0018721528 0.007659816
0000a0 00 95 a7 3c f8 11 ef 3b 28 f1 02 bd 8a 35 c5 3b
       0.02045679 0.007295843 -0.031968266 0.0060183452
0000b0 7d 97 b3 3b 3e d9 53 3b 66 c5 e7 3c 48 22 31 bd
       0.0054807053 0.0032325531 0.02829237 -0.043245584
0000c0 0c 22 2d bd 5e 59 91 b9 08 f5 e5 bc d6 5d 89 bd
       -0.042268798 -0.0002772314 -0.028070942 -0.06707351
0000d0 d6 ba 31 bc ea 17 b2 b9 8a 3d 40 bd 04 51 81 3d
       -0.010847768 -0.00033968623 -0.04693369 0.06314281
0000e0 32 b6 5d bc cb c1 41 bd 06 3f 9b ba 0b 55 5d bc
       -0.013532208 -0.047303956 -0.0011844344 -0.013509045
0000f0 8a 42 f0 bc 20 a0 34 ba 66 e7 58 3c 4c 35 cc 3c
       -0.029328603 -0.00068903156 0.013238763 0.024927758
000100 f6 e9 9a bb 4c 15 a5 bc 9b 41 49 bc ae c5 5b bd
       -0.0047275973 -0.020151757 -0.012283708 -0.05365532
000110 3a 21 56 bd c5 a1 23 bd 9d c2 07 3a 66 3f a4 3a
       -0.05227778 -0.039949197 0.0005178841 0.0012531101
000120 03 fb 39 bc 26 09 99 bc 3f c4 33 3d a0 58 63 bc
       -0.01135135 -0.01868112 0.043888327 -0.01387611
000130 70 b8 58 bd 03 ea a8 bb bf 3f 11 b8 9d 98 61 bc
       -0.05291027 -0.0051548495 -3.4630062e-05 -0.013769296
000140 46 05 24 bd 90 36 cb bb 86 76 51 39 06 49 af bd
       -0.04004409 -0.0062015727 0.00019975947 -0.0855885
000150 9f 66 8f bc a0 c7 1f bd a7 c1 3c bd 00 f6 ab bb
       -0.017504988 -0.039008737 -0.04608312 -0.0052478313
000160 51 36 ca bb 1e 93 8b 3c 3e 7d 8c bb 15 27 1a bd
       -0.006171026 0.017037924 -0.004287391 -0.037634928
000170 54 2a f1 bc d3 21 51 bc 6e 37 6e bd ca 16 52 bc
       -0.029439129 -0.012764412 -0.05815833 -0.012822816
000180 c3 d4 05 bc b6 24 85 bc 22 46 ec bb d5 82 0d bd
       -0.008168402 -0.016252857 -0.007210509 -0.0345486
000190 3b 4c 2a bc 68 78 5e bd 48 e2 f0 3c 75 c5 8e bc
       -0.010394151 -0.054314047 0.029404774 -0.01742814
0001a0 79 14 85 bd 9e f0 64 bc de b4 26 bc 44 57 05 ba
       -0.064980455 -0.013973383 -0.010174958 -0.0005086551
0001b0 65 91 4b bd ef 13 b1 3c ff f3 94 3c 27 a6 08 bc
       -0.049699206 0.02161595 0.018182753 -0.008340395
0001c0 ea 41 5f 3d fb 23 ca bc 80 11 4c bc 5c 46 52 3d
       0.05450622 -0.02467536 -0.012455344 0.05133663
0001d0 40 0b ec bc 42 7f 5b 3c 6b df e2 bc fe b3 8d bc
       -0.028813958 0.01339704 -0.027694425 -0.017297741
0001e0 48 37 48 bb c4 85 1e 3c 6b aa 9b bd fc ef e8 bc
       -0.0030550528 0.009675447 -0.07600864 -0.028434746
0001f0 1c df 09 bc c2 86 06 3c f4 07 56 3c 06 51 94 3c
       -0.00841501 0.00821084 0.01306342 0.018105041

layer2.weight f4 [128, 128]
000000 24 eb 0e 3d 6e 76 1a 3c e3 68 0b 3f 43 43 25 3e
       0.034892216 0.00942765 0.5445692 0.1613894
000010 18 83 46 bd 6a 64 b7 bd cb 15 bd be 67 ab bc bd
       -0.048464864 -0.08954699 -0.3693069 -0.0921238
000020 a8 b1 09 bd a3 41 69 bd 24 c7 fd 3d 91 c0 e7 3c
       -0.03361669 -0.05694736 0.12391499 0.028290065
000030 9f 0f 13 be 48 f1 11 bd 38 bb bb bd f9 57 63 be
       -0.14361428 -0.035630494 -0.091665685 -0.22201528
000040 3d 1d 7b 3e ea 49 2e bc 22 22 10 bc 9f 94 bc bc
       0.24522872 -0.01063774 -0.0087972 -0.023020087
000050 e2 ae e8 3b 4b 8b 0e 3d 48 73 2d 3d 3e 9d 84 be
       0.007100926 0.03480081 0.04234627 -0.25901216
000060 30 d6 6b bc 1a 44 e6 be 37 d7 0a 3d 46 e9 2a 3e
       -0.014394328 -0.44973832 0.03389665 0.16690549
000070 90 c9 fc 3c 7a 09 42 bc 76 ba 1a 3d 61 80 8e 3e
       0.030857831 -0.01184308 0.03777548 0.2783232
000080 40 32 bb 3b d8 ae b6 3b 34 38 d0 3c 40 0a f4 bc
       0.0057127774 0.005575042 0.025417425 -0.029790044
000090 72 00 8b 3e 48 f0 1c be eb 6a 24 3c dc 28 9f 3c
       0.27148777 -0.15326035 0.010035257 0.019428663
0000a0 a3 ed cb bb ba 53 9f be df c1 bd 3d 26 d4 86 3d
       -0.006223397 -0.31118566 0.092654936 0.06583433
0000b0 0f 48 5f be 78 91 07 bb 51 55 01 bd 2e 71 8d 3e
       -0.21804832 -0.0020686071 -0.031575505 0.27625412
0000c0 b4 38 99 3d ef cd aa 3e be 96 35 bd 10 28 85 bd
       0.074815184 0.3336024 -0.044333212 -0.06501782
0000d0 2a 00 e9 3b 52 7e 9b 3c 80 39 09 be 94 ae 5c 3e
       0.0071106153 0.018981133 -0.13400841 0.21550971
0000e0 9e c6 fe 3c e0 bc b7 3d 76 7e 04 3d d6 b8 61 be
       0.031100567 0.08971572 0.032347165 -0.22043166
0000f0 74 10 76 be 2c b2 fb ba 5b b5 a5 3d d2 4c 0b 3d
       -0.24029714 -0.001920288 0.080912314 0.03400881
000100 3c dc 8b 3c 86 bd 75 be bd 05 b3 3d 03 c5 10 be
       0.01707279 -0.23998079 0.08741329 -0.14137654
000110 b6 98 db be d3 06 7f 3d 8e 07 99 be 38 e1 34 3d
       -0.42889947 0.062262367 -0.29888576 0.044160098
000120 8a 37 03 3e 36 ed d4 3a 44 a4 20 3e 14 bb 07 3d
       0.12814155 0.0016245011 0.15687662 0.033137396
000130 a8 e2 e0 bc 91 c1 1b be 64 e7 cd bc be c2 d6 bb
       -0.027451828 -0.15210558 -0.02513475 -0.006553977
000140 2c c7 18 3e a8 4a 0f 3b 13 6d 8d 3e 22 78 5a be
       0.14919728 0.0021864567 0.2762228 -0.2133489
000150 bf 38 25 bd 4d d8 de bc fc f7 84 3e 4e 92 89 3c
       -0.04033732 -0.02720275 0.25970447 0.016793396
000160 04 e4 ec bc ff 7f 7d bb 00 7a 85 3c 5f 30 4d bc
       -0.02891732 -0.0038681028 0.016293526 -0.01252374
000170 fc ce 73 bc c4 75 14 bd 3a 1a da 3d aa 9f 13 bc
       -0.014880892 -0.036245123 0.106495336 -0.009010235
000180 5f a4 00 be 4f 72 09 bf 7a 85 49 3d 1b 9d e2 3e
       -0.12562703 -0.53690046 0.04919956 0.44260487
000190 1e a8 f3 3c 42 7c 55 3c 84 86 f9 3d 04 af 5b 3e
       0.02974325 0.013030114 0.1218386 0.21453482
0001a0 29 b8 2c bf 33 5d 50 3c b1 b6 bb be 8c c0 c0 3b
       -0.67468506 0.012717533 -0.3666282 0.0058823284
0001b0 ac 2a 66 3d c4 c3 1d bd 00 5e aa be c9 03 1e bc
       0.05619304 -0.038516775 -0.3327484 -0.009644457
0001c0 dc 09 72 3d c4 29 47 be 0b d2 b7 bc ae e8 7f 3e
       0.059091434 -0.19449526 -0.022439023 0.24991104
0001d0 fe 89 de bd e8 56 b8 3c b6 cc e9 bc de 63 8b 3e
       -0.10866164 0.022502378 -0.028539997 0.2722463
0001e0 a6 d5 1b 3c e4 83 28 3d 2d 38 a6 be e6 f8 cc 3d
       0.009511387 0.041141406 -0.32464734 0.10008411
0001f0 1e 67 b7 3c 8c 1a 59 bb d7 39 04 bd 1c 1d c0 3e
       0.022388037 -0.0033127395 -0.032281723 0.3752221
000200 80 1e 16 3c f2 fc dd bc 56 4d 9c 3e b2 a3 82 3e
       0.009162545 -0.027098153 0.30527753 0.25515515
000210 a1 65 a0 bd c1 c7 aa 3c ba fb e3 3b b7 5f b9 be
       -0.07831884 0.020847203 0.0069574984 -0.36205837
000220 1a 71 8d 3c 28 a7 c6 3d dc f1 82 bd f8 e0 52 3e
       0.017265845 0.09699851 -0.06393787 0.20593631
000230 16 ad 52 bd d8 78 2f bd b2 e1 11 3e 50 c1 0e bd
       -0.0514346 -0.042839855 0.14246252 -0.034852326
000240 0a 83 e6 3c 1a 61 91 3c 24 ac 9d 3a a6 55 dd bd
       0.028138656 0.017746497 0.0012029451 -0.10807352
000250 36 d6 9f bc f8 76 ad bc f6 30 15 3c 40 bd 74 bd
       -0.019511323 -0.021174893 0.0091059115 -0.059750795
000260 2a 38 17 bd c1 2e ba 3d 6b ab 0f bd bc 26 98 3e
       -0.036918797 0.09090949 -0.035075586 0.29717052
000270 80 19 fd bd 82 f8 35 bd 90 6e 9d 3e c8 01 71 3e
       -0.12358379 -0.04442645 0.30748415 0.23535836
000280 1a 1e b7 3a 42 70 f1 bc 64 5b 22 3d 00 4f 35 3c
       0.0013970763 -0.029472474 0.03963794 0.011066198
000290 aa 3f b4 be 11 40 85 3e 01 37 42 3c a4 8d d2 bb
       -0.35204822 0.2602544 0.011853934 -0.0064255763
0002a0 34 9c 41 be 4a e5 0d 3d 7f 12 b1 be 3e 31 4c 3d
       -0.18907243 0.034642495 -0.34584424 0.04985165
0002b0 ce e5 16 3e c4 56 83 3c f5 3b 84 bf 8e 03 28 be
       0.14736101 0.016032584 -1.0330797 -0.16407606
0002c0 e0 33 0c 3f a6 48 90 bd 82 85 df 3c 9e 8e 11 bd
       0.54766655 -0.070451066 0.027285341 -0.0355364
0002d0 48 86 14 3d e6 5c ed 3c 6c ac e7 3d 11 7b 22 bc
       0.036260873 0.028974961 0.11312184 -0.009917037
0002e0 14 60 9e 3e 08 0d 05 3f 89 d9 29 be 14 db 4a 3e
       0.30932677 0.5197301 -0.1658689 0.19810134
0002f0 9b 95 9d bd a4 bd bc 3b ba d1 3c bd f8 b0 29 bd
       -0.076945506 0.0057599116 -0.04609845 -0.041428536
000300 c8 1f 17 bc 17 1d 47 3d 90 df 86 3c eb 61 50 bd
       -0.009223886 0.048611727 0.016464025 -0.05087463
000310 8e f7 ce bd 86 d9 32 3e b3 e1 11 bd a8 71 a9 bb
       -0.10105811 0.17465791 -0.035615634 -0.0051710196
000320 47 64 1e 3b 8e a0 cd bc 9b 67 e8 bd 3e 88 8c 3a
       0.0024168657 -0.025100973 -0.11347886 0.0010721756
000330 ce 73 6b 3e b7 88 ff bd 7c 56 78 bc bc b1 83 3e
       0.22993395 -0.12477248 -0.015157338 0.25721538
000340 1e 5a 92 3e 08 64 06 bd 29 98 5c 3d c0 7b 28 3e
       0.2858438 -0.03281024 0.05385605 0.16453457
000350 82 ec 37 3e df ea 25 3f 6a 96 b4 be b4 76 47 be
       0.17961314 0.6481151 -0.35271007 -0.19478875
000360 62 b9 80 3b e7 7e 2c 3d 4a b1 8b 3c bf 2c 90 3e
       0.0039283494 0.04211321 0.017052311 0.2815914
000370 2e eb 5b 3e a5 53 7a 3c a8 b2 d4 3d 7c 70 b3 3b
       0.21476433 0.0152787315 0.103856385 0.0054760557
000380 76 14 ac be 2a a1 30 be 26 2d b0 bd 08 6f 82 3c
       -0.3360936 -0.17248979 -0.086023614 0.015922084
000390 4d 0d 8d bd 94 18 8b 3e b8 82 ab bc 19 46 b0 bd
       -0.068873025 0.2716719 -0.020936355 -0.0860712
0003a0 34 72 cf 3c 52 a9 a7 3c e6 e8 a1 be fb 4e 58 3c
       0.025323011 0.02046648 -0.31623 0.013202424
0003b0 72 c6 80 bd 0f 18 8a bd 9a 80 c6 be e8 93 38 bd
       -0.062878504 -0.0674287 -0.3876999 -0.04506293
0003c0 ac 3d d5 be 84 d8 0a be 4a 58 db 3c 76 92 44 bc
       -0.41648614 -0.13559157 0.026775498 -0.01199781
0003d0 cc 9a 37 bd d1 92 e3 bb f9 02 10 3d 9a 20 8d 3d
       -0.04482536 -0.006944992 0.035159085 0.06890984
0003e0 04 79 bf 3b 34 dd 42 3c f5 ea f0 bd be fe 93 3d
       0.0058432836 0.011893559 -0.117635645 0.072263226
0003f0 f2 cc d9 bc 38 20 19 bc f0 a4 8d 3e b7 2e aa bd
       -0.026586983 -0.00934606 0.276649 -0.083096914

layer2.bias f4 [128]
000000 7d c0 28 be 83 18 84 3d c4 0b 45 3f 6b 5b a5 3e
       -0.16479678 0.06449988 0.7697108 0.3229631
000010 2e b8 d7 3e 7b 20 d2 3e c6 e0 59 3f 86 ac cb bd
       0.42132705 0.41040406 0.851086 -0.099450156
000020 e8 c3 1b be a9 9c 5a bf c6 d6 af bd c1 8e c8 bd
       -0.15211451 -0.85395294 -0.08585887 -0.09792853
000030 98 2e 1f 3f 5c 93 da 3c 5e da e7 bd 86 c7 8f bf
       0.6218047 0.026681595 -0.11320947 -1.1232765
000040 a0 05 d3 be 39 9c 3d be 81 a1 d4 3e 2d f5 bd 3d
       -0.4121523 -0.18516625 0.41529468 0.09275279
000050 e0 09 5c 3e 3b a5 4d 3f 99 7e 7c 3e 3e 05 93 3d
       0.21488142 0.80330247 0.24657668 0.07178734
000060 c0 10 80 be 2e 36 03 3f a3 57 89 3d fa ce ca 3b
       -0.2501278 0.51254547 0.067061685 0.0061892243
000070 c6 61 50 3f e8 45 84 be 72 b9 df be fa af 0e bf
       0.8139919 -0.25834584 -0.4369617 -0.5573727
000080 1a 91 04 3e 54 fb 64 bb 12 bb d5 3e 96 c4 44 3e
       0.12945977 -0.0034939842 0.41744286 0.19215617
000090 f9 bf 12 bf 07 c2 30 be a4 23 35 bc 06 c7 98 3f
       -0.5732418 -0.17261516 -0.011055861 1.1935737
0000a0 03 45 35 3f c3 91 3d 3f 1f cd 62 be d6 6a 6b be
       0.7080843 0.7405054 -0.2214856 -0.22989973
0000b0 d4 65 8e 3e 8c 0b 28 bf 73 6d 88 3e 25 37 8f 3e
       0.27812064 -0.6564262 0.26646003 0.2797176
0000c0 d6 b3 71 bc 1f c2 12 3f e6 f8 9e be 8c 36 aa be
       -0.014752349 0.57327455 -0.3104927 -0.3324474
0000d0 5a 85 01 be d9 17 25 be 6e 2f a8 3e 12 60 81 be
       -0.12648526 -0.16122378 0.32848686 -0.25268608
0000e0 56 ab 25 bf a6 2a 0a 3f 08 e5 58 be 72 96 82 be
       -0.6471456 0.53971326 -0.21181118 -0.25505406
0000f0 69 f5 07 3f db 95 59 3d 90 0b 92 be a2 b3 a9 3e
       0.5310884 0.05312143 -0.28524446 0.3314486
000100 5e e2 6c 3e 08 f5 61 bb 9b 40 cd bc 02 43 df 3c
       0.23133227 -0.0034478325 -0.02505522 0.027253632
000110 9f af 2e be 2a fe 1b 3e a7 3e 2c 3e 39 8c a6 3e
       -0.17059182 0.15233675 0.16820775 0.32528856
000120 02 29 4d 3e dd c3 54 3d b8 5c 80 be f9 26 0a be
       0.20035174 0.051944602 -0.2507074 -0.1349143
000130 58 ae 8f 3e 92 35 ff 3d a1 e3 9c 3d d5 e7 7b 3e
       0.280627 0.124613896 0.07660604 0.24600156
000140 70 09 1c bd 9e 4f 3b be 1a 30 b2 3e e4 26 1b bd
       -0.038094938 -0.1829209 0.34802324 -0.037878886
000150 67 17 9d bd ed 92 93 be 22 12 5c 3e c9 fa 53 be
       -0.07670479 -0.28823033 0.21491292 -0.20701136
000160 47 95 37 3d 62 f6 3c be bf a3 be be 81 b7 3b 3e
       0.044820096 -0.18453363 -0.37234303 0.1833172
000170 54 88 81 3d f6 96 69 3e 7b 2e 93 3e 66 4c 51 3e
       0.06324831 0.22811493 0.287464 0.204393
000180 0c 01 05 be 28 b3 84 bc 3c 61 fe be 51 43 89 bd
       -0.1298868 -0.01619871 -0.4968356 -0.06702293
000190 a9 27 cd 3d e0 b0 71 3c fa 91 30 3e 76 68 12 3e
       0.1001733 0.014751643 0.17243186 0.14297661
0001a0 05 34 a3 bc e9 28 be bd 4a 02 68 be 10 a3 34 3e
       -0.019922266 -0.09285147 -0.22657123 0.17640328
0001b0 1e 8c 3a be d6 09 fc be c4 94 98 3e 12 69 cf 3d
       -0.18217513 -0.49226254 0.29801 0.101274624
0001c0 82 c1 0e bf ea e6 ec bd 69 12 67 3d c7 aa da 3e
       -0.5576402 -0.11567481 0.05641404 0.42708418
0001d0 a6 2f c9 3e 67 eb 83 be 23 b7 9a be 6e 1c d8 3e
       0.39294165 -0.25765535 -0.30217847 0.4220919
0001e0 6c 1e 2f 3e b2 36 de 3d dc 14 c4 3d d6 0e 58 3e
       0.17101449 0.10850276 0.09574291 0.2109941
0001f0 72 7f a2 be 1b 30 90 bb cf 37 7f be a8 a1 31 3e
       -0.31737858 -0.004400266 -0.24923633 0.17346823

layer3.weight f4 [62, 128]
000000 a2 bb ea be 50 de 1c 3d d0 ac 6a be ac 51 6a 3e
       -0.45846277 0.03829795 -0.22917485 0.22882718
000010 bd c8 e9 3d be e0 e0 3e bd 40 ea be 7c 46 cf 3e
       0.11415241 0.43921465 -0.45752516 0.40483463
000020 67 e3 89 be 38 41 4a be d4 c8 8f 3e ee 9d fe be
       -0.26931307 -0.19751441 0.28082907 -0.49729866
000030 fe 36 d9 3e c0 b3 a2 3e 43 f8 7c be a5 82 42 bd
       0.42424768 0.31777763 -0.2470408 -0.047487874
000040 56 58 f5 bc 48 31 89 3e 5a 54 47 bc 94 c1 d7 3d
       -0.029949348 0.2679541 -0.012166107 0.10534969
000050 43 5d 08 3e aa 71 43 be 6e 91 83 bd d5 01 0a bf
       0.13316827 -0.19086328 -0.06424223 -0.53909045
000060 30 f6 99 3e 90 2f 1d 3f b1 cc b4 3e 08 43 09 3f
       0.3007064 0.614007 0.35312417 0.53617907
000070 7e c8 89 3e 0e 95 f0 be 39 9e 4d 3f ee ab ce be
       0.26910776 -0.4698872 0.80319554 -0.40365547
000080 b5 84 20 bf 94 2b 53 be c2 22 88 3e a4 74 1d bf
       -0.62702495 -0.20622092 0.26589018 -0.61506104
000090 09 43 a9 be e4 09 5d bf ea a9 80 3e f4 0a 4e 3d
       -0.33058956 -0.86343217 0.25129634 0.050303414
0000a0 bb e1 01 3f db db b9 3e 80 6b fc bc 66 8c a2 be
       0.5073506 0.3630055 -0.030812979 -0.3174774
0000b0 5a 70 ea 3d c8 fa 65 bf 42 af 09 bf 5d 7b d3 be
       0.114472106 -0.89835787 -0.5378305 -0.41305056
0000c0 66 cb b0 3e f7 df c7 bc fb 3d 52 be fa 6b d5 3e
       0.3453018 -0.024398787 -0.20531456 0.41683942
0000d0 48 0d 5c bc 94 74 08 3e 09 41 a2 3e 23 86 2d bd
       -0.013430901 0.13325721 0.31690243 -0.04236425
0000e0 40 81 a8 bd 22 7d 93 3d 68 1b ac be 5f b2 9f be
       -0.082277775 0.072016016 -0.3361466 -0.31190774
0000f0 ca 41 4b bd 2c 47 c5 3c 3a b6 2f 3e 87 5a 10 3f
       -0.04962329 0.024081789 0.17159358 0.56388134
000100 87 99 f1 3e 4a 99 6b bd d8 14 14 3f f1 9a 38 3e
       0.47187445 -0.057519235 0.57844305 0.18027855
000110 5a d5 d3 be b3 5b 83 3e be 3c 51 bd 22 bb d6 3e
       -0.41373712 0.25655898 -0.05108332 0.41939646
000120 3b df 28 be 98 db b1 3e bd 27 be be 4c bd 6b be
       -0.16491406 0.3473785 -0.37139693 -0.2302143
000130 da 92 70 be d2 d6 a8 3e 72 15 b4 3e 2e d1 0c bf
       -0.2349352 0.32976395 0.3517261 -0.5500668
000140 98 43 25 be ac ee 00 3e ac a5 4a 3e 00 78 e3 3d
       -0.16139066 0.12591046 0.19789761 0.111068726
000150 33 b2 88 be 96 79 b6 bd 2a 99 89 be 82 82 0b 3f
       -0.26698455 -0.089099094 -0.26874667 0.54496014
000160 0a 78 a4 bd de 99 12 be 4f ab 1f bd b5 ce d8 be
       -0.08030708 -0.14316508 -0.038981732 -0.42345205
000170 dd 29 a9 3e bc 4c b3 bc d2 a3 5e 3e 20 f5 73 bf
       0.33039752 -0.021887176 0.2174218 -0.95295906
000180 98 d4 42 3d 40 f0 de 3e 0e d9 af be b8 03 05 bf
       0.047566026 0.4354267 -0.34345287 -0.519588
000190 30 58 71 be 24 5e 97 be a6 49 10 3f 39 8f 19 bc
       -0.23568797 -0.2956401 0.5636238 -0.009372526
0001a0 4b 1f f3 be 63 32 2c bd 50 80 53 3e e8 a2 76 3e
       -0.47484812 -0.04204024 0.20654416 0.24085581
0001b0 82 8d 54 3e 02 3e 68 bb 68 3e 40 be 0b 1c 5e bc
       0.20757106 -0.003543735 -0.18773806 -0.013556491
0001c0 5f 09 8e be 5d 80 d0 3d 3b 60 9c 3d 57 ad 32 3d
       -0.27741525 0.10180733 0.07635542 0.04362234
0001d0 35 1c 09 3f 36 c5 f8 3d 26 f7 34 bf b0 a5 81 3e
       0.53558666 0.1214699 -0.7068962 0.25321722
0001e0 d9 e9 83 be f9 2a 63 3e 5d 50 41 be bf f8 03 3c
       -0.2576435 0.22184362 -0.18878312 0.008054911
0001f0 76 19 dd 3d 27 5f ad 3e b2 4e 61 bd 21 76 0c bc
       0.10795872 0.33861658 -0.05500669 -0.008573086
000200 bf d8 1d be 00 33 77 bc e6 c4 22 bf ac f5 03 3f
       -0.15414713 -0.015087843 -0.63581693 0.5154674
000210 22 4a 91 be 64 59 10 be 12 03 18 bf 71 28 1a bf
       -0.2837687 -0.140966 -0.59379685 -0.6021796
000220 e8 ab 13 3e 68 bb 65 be 12 d6 4b bf f6 20 00 be
       0.14421046 -0.22434771 -0.7962352 -0.12512574
000230 d6 db 01 3f b0 ba 52 3e 44 a0 22 bf c4 20 e3 3e
       0.5072607 0.20579028 -0.63525796 0.44360936
000240 44 6c 8b 3e 62 f0 ac 3e fa 1f 57 bf 78 71 3b 3e
       0.27231038 0.33777148 -0.8403317 0.18305004
000250 d8 21 84 3e 22 0f 8d 3d ad 44 f3 be 81 38 2e bc
       0.2580707 0.06887652 -0.47513333 -0.010633589
000260 64 43 12 bf 9c 8d 9e 3e 19 9c e8 3e 0c 87 52 bd
       -0.5713408 0.30967414 0.45431593 -0.051398322
000270 1a b5 9c 3d 71 de 6d 3e 9f 13 ce 3e e2 0c b4 be
       0.0765173 0.23229386 0.40249345 -0.3516608
000280 84 e1 c7 3e 7c 0d 0c 3e b6 4d 68 be 2a 5b 92 3e
       0.39039242 0.13677019 -0.22685894 0.28585178
000290 ae c9 42 be 4e d8 9e bd db 9b 2b 3e 50 dc dc be
       -0.19022247 -0.077561006 0.16758673 -0.43136835
0002a0 60 16 c5 3d b4 43 23 bd 32 d5 26 3f 78 13 26 bb
       0.09623408 -0.03985949 0.6516906 -0.0025341194
0002b0 56 1a 96 3f d6 2b b1 3e c5 85 68 3e 89 48 b7 3d
       1.1726787 0.34603757 0.22707279 0.08949382
0002c0 3f 91 a9 3e 04 16 bc bd 2f a3 15 bf d6 d1 81 be
       0.33118626 -0.09183887 -0.58452123 -0.25355405
0002d0 08 3f d6 bd 41 a9 1d be 58 7e de bd ec 21 a1 3e
       -0.10461241 -0.15396596 -0.10863942 0.31471193
0002e0 e2 59 68 3e e6 26 fe be 5c 3f ce be c1 75 be be
       0.22690538 -0.49639052 -0.40282714 -0.37199214
0002f0 55 51 4e be 54 27 5e 3c 23 ea 5b 3c d7 f3 1b 3f
       -0.20148213 0.013559181 0.013422522 0.60918945
000300 c3 df c0 3d c8 ca 09 3d ec 8a dc be d6 c5 f1 3e
       0.09417679 0.033640653 -0.4307474 0.4722125
000310 04 ea 18 3f f0 c3 80 be 73 47 ca bd 55 03 9d 3c
       0.5973208 -0.25149488 -0.09876909 0.019166628
000320 15 a0 f2 3d c5 1a 55 3e 60 23 a1 3e 98 bf c4 bd
       0.118469395 0.20810993 0.314723 -0.09606856
000330 da be 71 3e 6f 18 87 be 91 d8 d9 3d f8 4a f5 3e
       0.2360796 -0.2638583 0.1063701 0.4790876
000340 c7 e7 0b 3f 00 63 0c be fe a6 5e be 74 1d 37 3e
       0.5465054 -0.1370964 -0.2174339 0.17882329
000350 da 65 03 bf 1f 44 07 be d8 f0 74 3e 88 1d 29 be
       -0.5132729 -0.1320958 0.2392 -0.16515172
000360 42 c2 c7 bd 1b 6a 8d be f6 ce 19 be e2 56 42 3f
       -0.097538486 -0.27620015 -0.15020356 0.7591382
000370 dd 78 9c be cf 21 98 bc 2c a4 1e bf d6 24 d9 3d
       -0.3056096 -0.018570809 -0.61969256 0.10602729
000380 8d 40 b1 ba a5 f2 f5 be b2 72 65 3e 11 98 b3 3c
       -0.0013523266 -0.48036686 0.22407034 0.021923097
000390 82 13 9d 3e 48 a4 d0 3e 9d b7 ad be 4e 07 cb bd
       0.30678946 0.40750337 -0.33929148 -0.09913503
0003a0 c8 48 69 3d 46 54 9e 3d d2 6c 9c 3e 7e cd 27 3e
       0.056954175 0.07730918 0.30551773 0.16386983
0003b0 66 81 61 3e 30 73 92 3d 63 aa 27 bc a6 2b 2b 3d
       0.22022018 0.071508765 -0.010233494 0.041789673
0003c0 06 d1 67 be b6 be 49 be de 5f 78 bd 19 e2 1a bd
       -0.2263833 -0.19701657 -0.0606383 -0.03781328
0003d0 b2 17 80 3e a4 4c 92 be f6 54 b2 bd df a0 08 bd
       0.25018078 -0.28574097 -0.08707611 -0.033356544
0003e0 18 f6 a9 3e 14 0e f7 be a2 67 88 3e 18 55 c7 be
       0.33195567 -0.48252928 0.26641566 -0.3893211
0003f0 e3 56 31 bf 69 47 00 bd af a4 99 be b6 7e e6 bc
       -0.69273204 -0.031318102 -0.30008456 -0.028136592

layer3.bias f4 [62]
000000 02 66 06 3f 1c dc ad 3e d6 e6 85 be 58 31 8f 3e
       0.524994 0.33956993 -0.26152676 0.27967334
000010 1e 79 21 be 2e 4d 06 3e ca 02 38 be fc d2 47 bd
       -0.15768859 0.13115379 -0.17969814 -0.048785195
000020 c0 a1 35 3f 02 0a a2 3e 3c 81 a0 be 7a b6 aa 3e
       0.70949936 0.3164826 -0.31348598 0.33342344
000030 f3 9a 5e 3e d8 27 59 3d 4f 22 1a be ee cb 11 3e
       0.21738796 0.053016514 -0.1505215 0.14237949
000040 4e 74 26 bd 9e 9f ac 3e cd 4f bd be 58 27 fe be
       -0.04063826 0.33715528 -0.36974946 -0.49639392
000050 5e e7 44 3e bd d1 8f be c4 e1 97 3e d2 6a 1f 3d
       0.19228885 -0.28089705 0.29664433 0.03892023
000060 b0 64 96 3e ae 0c b0 bd 16 7e 24 3e 65 04 13 3e
       0.29373693 -0.085961685 0.16063723 0.14357145
000070 8d ef bb bb d6 02 8a bc fd 10 d9 3e 21 95 e8 3d
       -0.005735344 -0.016847055 0.42395774 0.11356569
000080 00 74 d2 3e 18 a5 e9 3c 0c 42 b2 3d 55 7a e7 bd
       0.41104126 0.028521106 0.08704004 -0.1130263
000090 21 2e 3e be 09 ba a0 be f4 47 13 be 33 48 a2 be
       -0.18572284 -0.31391934 -0.14382917 -0.3169571
0000a0 e4 e4 e2 3d 74 57 c8 be c0 02 37 be 4e 9e e0 3e
       0.11078814 -0.3912922 -0.17872143 0.43870777
0000b0 b1 7c f0 be 90 22 49 be 83 48 21 3e 65 24 93 3e
       -0.46970132 -0.19642091 0.15750317 0.28738704
0000c0 5d 18 b7 be dd 40 83 3d 5e e8 10 be 3f 9f 17 be
       -0.35760775 0.06408856 -0.14151141 -0.14806841
0000d0 28 90 93 be ea d8 c0 be 32 6b 4f bd 14 2a 25 be
       -0.2882092 -0.37665492 -0.05063934 -0.16129333
0000e0 63 0b 73 be 0a 9a 50 bd 24 96 31 3e 62 64 12 3d
       -0.23734812 -0.050928153 0.1734243 0.035740264
0000f0 e0 35 4f 3d da a7 64 be
       0.05058849 -0.22329655
