assignment3_results/models/fed_c2e1.pth (torch, 502610 bytes, 6 tensors)

layer1.weight f4 [128, 784]
000000 1a 33 0a 3d e8 6f d0 bc 7a 03 1d bc 9c 3b 37 bc
       0.03374014 -0.025443986 -0.009583348 -0.011183646
000010 a4 0d a8 3a be ff 62 3c 58 ce 15 3c e2 b9 db 3b
       0.0012821448 0.013854919 0.009143434 0.0067055086
000020 06 57 bd 3a 3a cd 81 bc 2c 05 09 bd be 84 43 bc
       0.0014445491 -0.01584493 -0.033452198 -0.011933504
000030 b2 ce 8f bc 5e f8 7b 3c 48 9e 25 3b 26 e6 44 bb
       -0.017554615 0.01537904 0.0025271345 -0.0030044406
000040 04 bb ab bc 8c ff 9b bc d6 70 50 bc 2b 06 73 b9
       -0.0209632 -0.019042753 -0.012722215 -0.00023176584
000050 04 f4 a6 3c 6a d7 1d 3c d4 b8 58 ba 04 e7 c4 3c
       0.020380028 0.009633878 -0.00082672876 0.024035938
000060 ea 2c ad bc f8 cd 79 bb 1a ad be bc ee 55 fd 3b
       -0.02113958 -0.0038117152 -0.0232759 0.007731191
000070 68 47 b7 bb 14 d3 91 bc d7 37 6d 3b 7e 9d 73 3b
       -0.005593229 -0.017800845 0.0036196613 0.003717273
000080 b8 b5 22 3c 0c 62 38 37 06 43 73 bc aa 2f 38 bb
       0.00993102 1.0990083e-05 -0.014847523 -0.0028104582
000090 38 8a 1b bb 4c 8c 95 3c e0 a0 6a bb fe 8a a7 3c
       -0.0023733508 0.018255375 -0.0035801455 0.020452019
0000a0 96 3a c3 3c 58 0a 00 3c 6e ba e7 bc 78 93 86 bc
       0.023831647 0.007814966 -0.028287139 -0.01642774
0000b0 e8 e5 6d bc d0 ed da bc 62 97 42 bc a4 78 c1 bc
       -0.014520146 -0.026724726 -0.011876913 -0.023617096
0000c0 a0 c7 e8 3b 24 d4 0e bc fc 59 b0 3b 6c 6a 8b bc
       0.0071038753 -0.00871757 0.0053818207 -0.01701852
0000d0 b8 d5 97 3c c0 52 8c bc e6 f6 aa 3b b8 46 42 bc
       0.018534526 -0.017129302 0.005217421 -0.011857681
0000e0 46 bb d6 b9 12 2b 9a 3c ec e6 06 bc 9c b6 b7 3b
       -0.0004095679 0.018819366 -0.008233767 0.0056064855
0000f0 de 09 a8 bc 68 c9 60 3c a8 5e a7 3c f8 df a9 3a
       -0.020512518 0.013719894 0.020430878 0.0012960425
000100 da 87 95 bc 94 eb 7d bc 0c 5d d4 3b 4c 35 88 bc
       -0.018253256 -0.015498061 0.0064808186 -0.016626976
000110 c8 4f 06 bd 42 46 3d bc 68 12 c9 bb 88 a6 98 bc
       -0.03279093 -0.011552395 -0.0061362274 -0.018634096
000120 02 7d e1 ba c2 93 99 ba fa 18 bc bb 70 2e e0 bb
       -0.0017203393 -0.0011717009 -0.005740282 -0.0068414733
000130 a0 65 8e bc 7c 96 e2 3b 52 81 a9 3c 92 96 8b bc
       -0.017382443 0.006914912 0.020691548 -0.017039571
000140 62 60 7c 3b 6c de d5 bb 52 bd 97 bc 60 18 0d bb
       0.0038509597 -0.006526759 -0.018522892 -0.0021529421
000150 fa 12 ba bc c0 d7 a5 39 80 4f 6d bc 62 31 f4 3b
       -0.022714127 0.00031632 -0.014484286 0.007452176
000160 a4 32 35 bb ea 68 a6 3c 97 2d 76 3c e6 0e ae bc
       -0.0027648592 0.020313699 0.015025518 -0.021247339
000170 dc 1c bd bb b4 b4 b8 bc 7c 1d cd b9 8e de e1 3c
       -0.0057712626 -0.022547103 -0.00039122615 0.027571943
000180 0e 3d 86 bc 66 27 49 bc 28 ca 96 3b 88 3c e6 3c
       -0.016386535 -0.01227746 0.0046017356 0.028105035
000190 dc e6 69 bc 8e 34 07 3c 04 bd fa bb 22 ad b4 3c
       -0.014276233 0.008252276 -0.007651927 0.022055212
0001a0 60 be 34 bc 38 bb 05 3c 92 90 b9 3b 06 11 8c bb
       -0.011031717 0.008162312 0.005662986 -0.0042744903
0001b0 62 b3 9f bb fa aa 40 bc 96 60 56 3c 1e b4 5e b9
       -0.004873679 -0.011759514 0.013084551 -0.00021238669
0001c0 16 c5 23 3c 1a dc c5 bb 16 68 c1 bc d8 52 63 3c
       0.009995719 -0.006038201 -0.023609202 0.013874732
0001d0 7e 4c c6 3b f6 05 66 39 1a 0d 7b bb e0 b1 8b bc
       0.006051599 0.0002193673 -0.003830737 -0.01705259
0001e0 1c 58 81 bc 06 0c 1e 3c 70 bb 93 ba 28 74 63 3c
       -0.015789084 0.009646421 -0.0011271071 0.013882674
0001f0 c0 4d d7 bc 84 54 dd bc a2 aa 17 3b b8 52 90 bc
       -0.026282191 -0.02701784 0.0023142477 -0.017617568
000200 08 fc ab bc c4 0a 9f bb 1e f6 d2 3c 48 b0 5d bc
       -0.020994201 -0.0048535783 0.025752123 -0.013530798
000210 2c 9a 1f bc 6a 72 43 3c 7e fa eb 3c d0 7a b8 bb
       -0.009741347 0.011929134 0.028805967 -0.0056298748
000220 84 dd 47 3b be d3 09 3d d8 92 9a 3c 8a 64 5a 3c
       0.0030497024 0.0336492 0.018868849 0.013329634
000230 4a 51 ae 3b 36 cb b3 3b 3a 8a 2b bc 4e 89 d4 bc
       0.005319749 0.005486871 -0.0104699675 -0.025944378
000240 7a 99 1e 3b 88 81 35 3c 14 0b 89 3c 26 a0 76 3b
       0.0024200366 0.011078246 0.016728915 0.0037632077
000250 64 fe 60 3b b9 51 78 bb 00 e3 20 3a e0 a5 1a ba
       0.0034331316 -0.0037890507 0.0006137341 -0.0005899351
000260 ee aa f3 3c c8 44 91 3b 0e 16 50 3c 22 00 0d 3c
       0.029744592 0.004433248 0.012700571 0.008605989
000270 ac 74 ba ba ea 42 ac bc a3 67 e5 ba a4 24 9b 3b
       -0.0014225445 -0.021028 -0.00175022 0.0047345925
000280 f6 ce ae 3c 10 2e b5 3c 24 93 b3 bc c2 d5 1b bc
       0.021338921 0.02211669 -0.021920748 -0.009511413
000290 7e 66 af bc ba 41 00 bb 14 ac 55 3c c0 5a 6c 3c
       -0.021411177 -0.0019570426 0.013041515 0.014425933
0002a0 98 ff f0 bc 02 00 b5 bc b6 a6 22 3c 70 70 88 3b
       -0.029418752 -0.02209473 0.009927442 0.004163794
0002b0 0e b7 ce bb ce b2 21 bc 12 7f 51 bb bc 30 2d bc
       -0.006308443 -0.0098692905 -0.003196661 -0.010570701
0002c0 10 55 16 ba 5c 48 fc 3a 2c a4 8e 3c 24 4f aa 3c
       -0.0005734721 0.0019247639 0.017412268 0.02078969
0002d0 6e fd 67 3c 62 ab 86 3b 24 dd 87 bc 2c 78 b6 3b
       0.014159543 0.004109786 -0.01658494 0.005568525
0002e0 4a 1f 92 3c 34 e2 06 3d 7c 4b cd bc 9c b0 25 3c
       0.017837185 0.032930568 -0.025060408 0.010112908
0002f0 ea f3 42 3b 0a 88 aa bc e9 e3 f8 ba 0a 36 8b 3c
       0.0029747435 -0.020816822 -0.0018988821 0.016993541
000300 3e c5 3d 3a 94 e6 58 39 22 e9 d4 bb e2 9f d1 3b
       0.0007239169 0.00020685262 -0.006497518 0.0063972333
000310 26 9d bf 3c 32 41 68 bc c6 dc a6 bc f0 ec 7e bc
       0.023390364 -0.0141757 -0.020368945 -0.01555942
000320 50 e0 9c 3c 5c 3c 97 3c 76 9c 82 bb e4 53 40 bc
       0.01914993 0.018461399 -0.0039859368 -0.011738751
000330 0e 21 0a bc 20 b1 89 bc 9c 84 f6 3b 16 92 ec 3b
       -0.008430732 -0.016808093 0.0075231325 0.0072195632
000340 bc 1a 34 bb a6 59 ef 3b 24 7e 43 bc a2 c1 43 3a
       -0.0027481755 0.007304388 -0.01193193 0.0007467513
000350 90 e1 5d bc 5e fe 36 bc fa 70 ae bb ca c9 47 bc
       -0.013542548 -0.011169044 -0.0053235264 -0.012194106
000360 1e f2 33 bc ca 8a de 3a de 69 87 3c 38 ed 60 bc
       -0.010983018 0.0016978618 0.016529974 -0.013728432
000370 94 1a bb 3c 2e ab 84 3c ba 6a cc bc 2c 58 84 bb
       0.022839822 0.016194906 -0.024953235 -0.004038831
000380 9e 81 46 3b 3e 0c fa bb 90 59 15 bc 40 16 08 bb
       0.003028966 -0.007630854 -0.009115592 -0.0020765215
000390 18 1e 44 3c 98 ce a5 ba 36 02 4b 3b 8d 8c e1 3b
       0.0119700655 -0.0012650071 0.003097666 0.00688321
0003a0 6c 24 97 3c aa 65 4a 3c b0 8e 21 3c 6a 51 6a 3b
       0.018449984 0.01235334 0.0098606795 0.0035754093
0003b0 be b0 33 3b 16 e1 dd 3a 4c b6 a9 bb bc 9d f7 bc
       0.002741858 0.0016928043 -0.005179202 -0.03022658
0003c0 5e 25 8a bc 4e 4e 86 bc 82 3f 78 3c 68 07 14 3c
       -0.016863521 -0.01639476 0.01515186 0.009034969
0003d0 1a 0c 70 3c f8 00 b6 ba 76 1b 37 bc ac 8c 9e 3c
       0.014651323 -0.0013885787 -0.011175981 0.019354187
0003e0 e4 58 3f bc 6e f3 45 bc ec 15 2c bc aa 1c cc 3b
       -0.011678908 -0.012081964 -0.010503273 0.006229003
0003f0 8c 94 87 3b 70 38 cf bc 58 cb 88 bb 24 f8 99 3c
       0.004137581 -0.025295466 -0.004174631 0.01879508

layer1.bias f4 [128]
000000 ea ad a8 bc b5 d7 1f 3d ac 0a bc 3b 74 3f 92 bc
       -0.020590741 0.039024074 0.005738577 -0.017852522
000010 18 7b e8 bb c0 46 fd bc 17 34 c8 3b c4 24 fc 3b
       -0.007094752 -0.030917525 0.006109725 0.0076948125
000020 9a 89 51 bc ea b3 38 3a 5a 48 21 bc 39 db 5f 3c
       -0.012789154 0.0007045852 -0.00984391 0.013663107
000030 65 33 89 3b 7c 11 ca 3c ca 61 0c bd bb 52 a9 bb
       0.004187035 0.02466654 -0.034272946 -0.005167333
000040 dc bc ce 3c 76 62 42 3c 3e 53 8f 3b a0 b9 dc bc
       0.02523654 0.011864295 0.004373937 -0.026943982
000050 52 90 27 3d 1a a9 08 bd 3b fc 0d bc 18 03 de 3c
       0.04090912 -0.033364393 -0.008666093 0.027101085
000060 2a b9 6d bd 92 ee ad bc ac b5 80 bc 6c 9f 32 bd
       -0.058037914 -0.021231923 -0.015711628 -0.043609068
000070 66 7a 4b 3c 42 48 43 3c 6c 63 3e 3d dc db 4a 3c
       0.012419319 0.011919083 0.046481535 0.01238152
000080 5c 3a 1f bd 7b 13 39 bd 18 71 38 bd c9 5a 2c 3d
       -0.038874015 -0.045184594 -0.04502973 0.042078767
000090 62 60 d2 bb ac fe 7b bc 3a 4d 5f 3c 8a fe 11 3c
       -0.006420181 -0.015380543 0.013629252 0.0089107845
0000a0 bc fa c1 bc 6c ca 21 bd 04 a7 f1 bc bf a8 90 bb
       -0.02367913 -0.039499685 -0.029498585 -0.0044146474
0000b0 ee db 5f bc 43 4f 32 3d 47 e1 03 bd 26 d3 c0 3c
       -0.013663275 0.04353262 -0.032197263 0.023538183
0000c0 94 cf 39 3c b2 9f 31 3a 10 91 23 bd 4e db 46 bc
       0.011340994 0.00067758106 -0.039933264 -0.012137247
0000d0 f2 c0 4d 3b 40 83 ce bb 1c e0 ae bc 84 4d 0a 3c
       0.0031395522 -0.0063022673 -0.021347098 0.008441333
0000e0 62 c4 92 bb 1c 74 bb b9 0b ae 13 bd a2 7f ae 3c
       -0.004478977 -0.00035753928 -0.036054652 0.021301094
0000f0 70 7d 04 3a aa 6b b3 bc 58 fe 66 bb 32 8a 13 bc
       0.0005054092 -0.021901924 -0.0035246816 -0.009005116
000100 72 93 8b bc 3c cd 44 bc dc 58 ba 3b e5 b2 d1 bc
       -0.01703808 -0.012011822 0.0056868624 -0.025597999
000110 87 5e 0a bd 9e ec 41 3b 3c 8d 8b bb 18 e3 c1 bc
       -0.033781555 0.0029590498 -0.00425878 -0.023667857
000120 88 21 96 bd cd 08 db bc 80 45 33 bd a0 b0 7c 3c
       -0.07330614 -0.026737595 -0.043767452 0.01542297
000130 3c 6c 6d bd 2e 85 16 bc 3a 81 43 bc d6 cf 09 3d
       -0.05796455 -0.009187026 -0.0119326655 0.033645473
000140 8f d6 a8 bc cf cb 0f 3a f8 66 ef bc 3a 04 0f 3c
       -0.020610122 0.0005485387 -0.029223904 0.008729035
000150 8a 16 77 bb ab 84 49 ba a5 7f b4 bc 06 ca 1d bc
       -0.0037702643 -0.00076873106 -0.022033522 -0.009630686
000160 b4 0b 01 3d 72 fc 75 3b 46 04 3d 3c 9a 5f 84 3c
       0.0315053 0.0037534502 0.011536663 0.016158868
000170 b2 23 03 bd 6e cd 2f 3c 3c de c3 b9 a4 95 01 bd
       -0.032016464 0.010730131 -0.00037358876 -0.03163685
000180 c8 9f 4d 3d d9 12 00 bd 0e 99 a8 bc c5 e4 f3 bc
       0.050201207 -0.031267975 -0.020580795 -0.029772172
000190 dd 0d 06 bd c3 82 4f bc 1c 25 8a bc 4c a8 bf bb
       -0.032728065 -0.012665453 -0.016863398 -0.00584892
0001a0 ec 37 b8 3c 38 4b 41 bc 18 fc 06 ba 41 98 7d 3b
       0.022487603 -0.011797719 -0.0005149259 0.0038695487
0001b0 c2 03 b0 bb f2 fb ab bc 5e 1b da bb 62 11 bc bc
       -0.0053715417 -0.02099416 -0.0066560945 -0.022957508
0001c0 06 2f 32 bc ac 3f ed bc 06 7a 9a bb ea 30 87 3c
       -0.010875469 -0.028961025 -0.0047142534 0.016502816
0001d0 f7 c3 40 3b ac 9f 1c bb 6c c0 ea 3c 69 f4 94 bd
       0.002941368 -0.0023898883 0.028656207 -0.0727318
0001e0 0a 39 0c 3d 34 20 f3 bc c4 08 07 3c 4a 81 bb bc
       0.034234084 -0.029678442 0.008241836 -0.022888798
0001f0 dc c9 b8 bc 9c 99 cc bb 89 91 4c bb 6a 15 ed bc
       -0.022557192 -0.0062438976 -0.0031214675 -0.028940875

layer2.weight f4 [128, 128]
000000 ca 08 89 bd aa a8 bb be 2b 36 3a be ce 35 ce 3d
       -0.066911295 -0.36652118 -0.18184726 0.10068856
000010 da 89 ad 3d d4 d9 65 3e f4 3c 85 3e a4 7b ef bd
       0.08473559 0.22446376 0.26023066 -0.116935045
000020 ca 4b 45 3c b4 a1 86 bc 9a 03 3e 3d bb 52 60 bc
       0.012041995 -0.016434528 0.046390153 -0.0136915995
000030 0e f8 04 3e c0 f6 90 3e 46 44 8e 3d 21 43 1e 3e
       0.1298525 0.28313255 0.06946616 0.15455295
000040 f8 6a 0a bd ed 34 63 3e 90 d3 aa bb 44 bc 3d bd
       -0.03379342 0.22188158 -0.0052132085 -0.046322122
000050 6e 53 06 bd 18 d3 cf 3c 36 e6 2c 3d 34 4f b1 bd
       -0.03279441 0.025369212 0.042211734 -0.08657685
000060 ce b5 4b 3e f1 8f 88 3b ca fc e6 be ae fd fa 3c
       0.19893572 0.00416755 -0.45114738 0.030638542
000070 28 47 d1 bc fa 5a 2f 3c 2e e8 2e 3e 6a 97 c9 3c
       -0.025546625 0.010702843 0.17080757 0.024608333
000080 4b c0 80 bd f4 14 99 3e fc a5 03 bb 20 43 06 3e
       -0.06286677 0.29898798 -0.0020087948 0.13111544
000090 9a 6f ad 3c ae ec 1c 3c c0 1f a8 bc be 1a 02 3c
       0.02117138 0.009577913 -0.020522952 0.007940946
0000a0 e5 ea b3 3d 8c 5c 9f bd ac e5 5e 3d 75 97 89 3d
       0.08785037 -0.07781324 0.05441825 0.06718341
0000b0 c8 72 76 bd 71 08 59 3e 62 5f 5b bd 84 1b 64 bd
       -0.060168058 0.21194626 -0.05355776 -0.055690303
0000c0 23 c5 8d bc 26 c2 92 bd 68 c6 2c 3c 40 30 81 be
       -0.017305916 -0.07165937 0.010545351 -0.25232124
0000d0 3c 44 1b 3e 02 42 a8 bc a4 9c 31 3d e6 db ec 3d
       0.15162748 -0.020539287 0.043362275 0.1156538
0000e0 ce 1d 7e bd 56 0b 4a be ba 78 29 3e 1a 9b bb 3c
       -0.062040143 -0.19730887 0.1654996 0.022901107
0000f0 7b cc 4c bd 00 3f 99 3a 9e 4e 03 be 19 c5 92 3d
       -0.049999695 0.0011691749 -0.12822959 0.071665
000100 d6 41 b1 3b 66 47 a4 3c 1c 9d a6 be 7e 17 3c 3c
       0.0054094596 0.020053577 -0.3254174 0.01148021
000110 7c ed 89 bd 12 be 09 3e 30 e7 06 3b 04 df 03 be
       -0.0673475 0.13451412 0.0020584576 -0.12878042
000120 6f 2b e3 3c 34 f4 0f bf 94 a0 f1 3d 43 d1 d6 3c
       0.027730672 -0.56232 0.11798206 0.02622283
000130 51 25 8d 3e c6 43 f2 3e 60 5d f0 bb bc 26 17 3c
       0.27567533 0.47317332 -0.00733535 0.009225544
000140 bc bf 6c 3d 7e 15 cb bd 5d 4e 1e 3e 08 72 76 3c
       0.05780004 -0.09916209 0.1545958 0.015041836
000150 cf c7 ca 3c 4b 3b 85 3d 37 24 45 be 46 07 7c bd
       0.02475348 0.0650545 -0.19252096 -0.061530374
000160 8c a1 55 bd 84 2f c5 bd 3a 03 51 3e 4e 1a b9 bc
       -0.052156016 -0.096282035 0.20411387 -0.02259555
000170 bc f4 22 3e 2a 3b 06 3c 10 72 a3 3c c6 5e 89 bd
       0.15913671 0.008192817 0.01995185 -0.0670753
000180 a0 46 e7 3d a8 6c aa bd 86 49 38 bd f7 b3 22 bd
       0.112927675 -0.08321506 -0.044991992 -0.03972241
000190 8c 07 94 be 52 f2 f4 3d 04 4c 0a 3e 3e bc 01 be
       -0.28912008 0.119602814 0.1350556 -0.12669465
0001a0 0b e2 36 3e 16 b0 51 3d 42 a8 26 3d 8f cd 1b be
       0.17859666 0.05119332 0.040687807 -0.15215133
0001b0 26 1c 17 3d 42 c7 36 be c4 46 4b 3a 16 7c 91 3d
       0.03689208 -0.17849448 0.00077543803 0.07103746
0001c0 be 81 42 3c 8a 8f b9 bc 56 c2 28 3d c0 e6 1c 3d
       0.011871753 -0.022651453 0.04120096 0.038305998
0001d0 90 b7 c2 bd da 84 39 3c 34 b9 96 bc 2e 6e 9e bd
       -0.09507668 0.011323178 -0.018398859 -0.07735859
0001e0 86 73 81 3d 84 04 4a bd ad a9 05 3c e6 3b ca 3c
       0.063208625 -0.049320713 0.00815813 0.024686765
0001f0 02 19 03 3b 00 5f 01 3b 52 b3 20 3d d0 22 a7 3d
       0.002000392 0.0019740462 0.039233513 0.08160937
000200 40 98 9b 3a 21 e4 92 bd 8e e4 c9 be 19 f5 8e bd
       0.0011870936 -0.071724184 -0.39432186 -0.069803424
000210 6a 14 8e bc 12 fe 08 3e d1 06 9d be cc b2 59 3e
       -0.017343719 0.1337817 -0.30669263 0.21259612
000220 c4 98 80 bb d4 a9 a5 3c ec f8 3c bd 62 35 53 3d
       -0.003924461 0.020222582 -0.046135828 0.05156458
000230 22 6e 18 3d d8 86 ac 3d e6 b8 d9 3e 92 c2 8a bc
       0.037214406 0.08424157 0.4252388 -0.016938481
000240 be 58 39 bd 47 67 be be 46 0b 8a 3d fe 3a a6 3c
       -0.045250647 -0.3718817 0.067404315 0.020291802
000250 f3 0a a1 3d 88 1c d3 ba 2e 7d 02 be 1b a8 a8 bd
       0.078634165 -0.0016106525 -0.12743065 -0.082351886
000260 eb 28 45 3e 96 43 fe be 2a 92 ff 3d bc 3b bf 3d
       0.1925389 -0.4966094 0.124790505 0.09337565
000270 1e cb 15 bc cc e3 5c bd 95 59 80 be 6e ca 02 be
       -0.009142665 -0.05392818 -0.25068346 -0.12772533
000280 4d 8e 0f be 5e 8a d7 bd e4 f8 a0 3c ad e8 b6 3d
       -0.14019127 -0.10524438 0.01964993 0.08931098
000290 ac 4f 68 bd 1c d1 35 bd b8 c2 b4 bd e8 90 e1 bc
       -0.056716606 -0.044388875 -0.08826202 -0.027534917
0002a0 9d de e2 3d 68 40 49 3e f6 b1 92 bc 7c 2c 56 3d
       0.11077616 0.19653475 -0.017907124 0.052288517
0002b0 a8 56 3f be f7 aa 8c 3d c4 a3 06 3e 91 df ff bc
       -0.186854 0.068685465 0.13148409 -0.031234534
0002c0 9d 45 00 be 04 d9 45 3d 10 a9 82 3d e2 5e 0b be
       -0.12526555 0.048302665 0.06379902 -0.13610414
0002d0 74 10 bd 3c 40 8c 7f bc 7e 4a 16 bd d8 56 02 be
       0.023079135 -0.015597403 -0.036692135 -0.12728441
0002e0 93 25 70 be fb e1 12 be 09 65 ca 3d 94 55 f3 bc
       -0.23451833 -0.14344017 0.09882552 -0.029703893
0002f0 1e 4b 5e be 2c 54 80 3c 0e 15 3c bc 34 c5 14 3e
       -0.21708342 0.015665136 -0.011479629 0.14528352
000300 26 8d 3a 3d bc 09 9a 3c c9 24 39 bc cb 8f 56 be
       0.045544766 0.01880347 -0.011300274 -0.2095329
000310 34 83 b5 be c9 5f 27 be 5e ac 82 3c 2d c2 01 3e
       -0.35451663 -0.16345133 0.015951332 0.12671728
000320 b7 53 a0 3d 0e c1 88 be c5 1a 82 be 5c 39 2b 3c
       0.07828467 -0.2670979 -0.2541105 0.010450687
000330 06 b4 3a be 18 8a ab bd 50 06 58 3c 25 65 69 3d
       -0.18232736 -0.08375949 0.013185099 0.056981225
000340 e4 64 86 3d 26 c5 8d bb 34 71 a7 3d 84 b9 65 bd
       0.06562212 -0.0043264804 0.08175889 -0.056085125
000350 60 62 3f bd d2 5b a5 bd 54 7b 1d be 60 4a 07 bd
       -0.046724677 -0.08074154 -0.15379077 -0.033029914
000360 d1 e1 68 be cf 5b 3d bd 52 9a 93 bd 40 a5 88 bd
       -0.22742392 -0.046230134 -0.07207169 -0.06672144
000370 4f ce eb 3c ca 66 63 3d 2e c5 33 bd 74 88 38 bc
       0.028784899 0.05551795 -0.043889217 -0.011263002
000380 7c 67 df bd 71 92 9a 3e b2 b6 3c 3e 0d 1b 44 3e
       -0.1090841 0.3018985 0.18429068 0.19150944
000390 b9 6a f0 3d 6a f8 e5 3d 92 8e 92 3b 2e e6 4a 3b
       0.11739106 0.11229022 0.004472562 0.0030959952
0003a0 14 5e 33 bd 96 fd 8d bc 68 b4 ff 3c 90 ab 1e be
       -0.04379089 -0.017332833 0.031213954 -0.15495133
0003b0 7c 86 09 3c eb c8 0d 3e fc 30 5c 3b de 86 a4 3d
       0.00839388 0.13846175 0.0033598533 0.080335364
0003c0 3c f5 cf 3c d8 f6 71 3b f8 49 9e bd 1e 16 ac 3b
       0.025385492 0.0036920812 -0.07728952 0.00525166
0003d0 da 8a d9 bd a8 f7 28 3d b4 fd d2 3d 80 c4 79 3d
       -0.10622187 0.04125181 0.10302296 0.060978413
0003e0 b2 c2 77 3e 8a c5 71 bd 70 5d 01 3e 44 c4 82 3d
       0.24195364 -0.05902628 0.126333 0.06385091
0003f0 12 b5 16 3c d8 09 87 bc 48 62 20 bd e8 3a c5 3e
       0.009198444 -0.016484186 -0.03915623 0.38521504

layer2.bias f4 [128]
000000 0f d8 b0 bc 8a 8f 39 be 72 73 6a 3d ca c5 ae bc
       -0.0215874 -0.18121162 0.057239003 -0.021334548
000010 8e e8 3a 3c 34 f5 3d bd 26 de 38 3e aa fb fd bd
       0.011407984 -0.046376422 0.18053493 -0.12401517
000020 38 3e 0e bd b5 13 91 be 0c e9 3e be d7 1b 32 3d
       -0.034727305 -0.28335348 -0.18643588 0.04348358
000030 d2 e0 cc 3c 7e 22 30 bd f7 3b 18 3e dc 5f 34 be
       0.025009546 -0.043001644 0.14866625 -0.17614692
000040 a7 96 46 bd 58 b2 b9 bd b3 e8 9b bd 72 fa 1e bc
       -0.048483517 -0.090672195 -0.07612743 -0.0097032655
000050 89 ca 70 bd d0 ec 9e bc 48 09 09 bd ba 84 32 bd
       -0.058786903 -0.01940003 -0.033456117 -0.04358361
000060 49 bb 8d bd c5 3b 98 bc 68 7e 0d be 06 d0 e8 bc
       -0.069204874 -0.018583188 -0.13817751 -0.028419506
000070 e0 b8 83 3e da 35 c2 3c 08 98 59 3e 35 90 a2 be
       0.25726986 0.023707319 0.21249402 -0.31750646
000080 3d 65 8d 3d a7 4a 89 3e b2 f4 1a be 7f 98 c5 3e
       0.06904075 0.26814768 -0.15132406 0.38592908
000090 4a 0b 34 3d c6 98 cd bd e8 ae a7 3d 9f 09 3a bb
       0.04395608 -0.10038905 0.081876576 -0.0028387082
0000a0 19 1f 98 bc 33 d2 1b be 84 92 fd 3d 36 2b 2f bd
       -0.018569516 -0.15216903 0.12381461 -0.04276582
0000b0 7b 02 60 bd 60 96 f1 bd 51 79 61 3e 81 72 53 bd
       -0.054689866 -0.1179626 0.22018935 -0.05162287
0000c0 4a b9 92 3b 2e d6 8f bd 4e 7a 2a 3f 1f d0 01 bd
       0.0044776546 -0.070232734 0.6659287 -0.03169262
0000d0 ac 7c 25 be 3c 3c 37 3e 58 15 09 3e 5b 43 64 3e
       -0.1616084 0.17894071 0.13387048 0.22291319
0000e0 ad 5d 0d bc 13 18 ef be 6b cb 6a be 0a 84 86 3d
       -0.008628291 -0.46698055 -0.2292916 0.06568153
0000f0 1f d2 d0 bc 10 ba 13 3e ce dc 35 be 4c eb 6c 3c
       -0.025490819 0.14426446 -0.17760012 0.014460396
000100 1c 6e 92 bb 88 df 43 3d 27 f9 92 3e d7 38 60 be
       -0.0044686925 0.047820598 0.28705713 -0.21896683
000110 ce 79 a2 3d 55 61 06 be 1e c7 1f 3d 35 f0 ce bc
       0.07933389 -0.13123067 0.039008252 -0.025261024
000120 fc 70 3f 3e 8c 21 fe bb e6 a2 1b 3e 06 17 38 3e
       0.18695444 -0.007755464 0.1519886 0.17977533
000130 1d da 62 3c a6 4b e0 3d 7d a8 86 3d 58 f2 b1 3d
       0.013845948 0.10951929 0.06575105 0.086888015
000140 86 6b 37 bc 68 2e 50 bc ed 46 1a 3f fd 6d b9 3e
       -0.011195069 -0.012706377 0.60264474 0.36216727
000150 9e cf a3 3d c3 d3 99 bd 9e b4 31 3c 6b 05 8f bc
       0.07998584 -0.075110935 0.010846285 -0.017458638
000160 69 92 e4 bd c8 a1 25 be 2a e3 0b be 2b 05 00 3e
       -0.11160738 -0.16174996 -0.13660875 0.12501971
000170 e5 9a ae 3d 9b 06 41 3e 91 8a c7 3d 5d b0 15 bc
       0.085256375 0.18850176 0.09743226 -0.009136287
000180 19 f5 ef bd dd bf 89 bc 36 bc d3 bd 1e e2 11 3e
       -0.117166705 -0.01681512 -0.10338633 0.14246413
000190 7c 8c 7a 3d 64 3c fe bd b4 ad 0e be 3c 7f 24 bd
       0.061169133 -0.12413862 -0.1393345 -0.040160403
0001a0 98 d4 ef 3d dc 72 7b bd d9 51 b2 3d dc 72 6d 3e
       0.11710471 -0.061388835 0.087070175 0.23188347
0001b0 06 89 94 bd 45 8c b0 3d cc 37 68 3e f0 42 c9 bc
       -0.07252698 0.08620504 0.22677535 -0.024568051
0001c0 bc 03 1a bd 53 0d 39 3e 1f 40 b9 3d 9d 8c 9f bd
       -0.037601218 0.18071489 0.09045433 -0.07790492
0001d0 7f 30 7e bd ab c5 74 bb 94 80 19 bb 7e f6 8d bd
       -0.06205797 -0.0037349265 -0.0023422586 -0.0693178
0001e0 56 b1 c0 3e f9 aa df bd c0 62 77 bd f1 55 11 3e
       0.37635297 -0.10921282 -0.06039691 0.1419294
0001f0 dd c4 2f bd 48 c7 b7 3e ec 20 76 bc 19 2c da bd
       -0.042912353 0.35894227 -0.015022498 -0.10652942

layer3.weight f4 [62, 128]
000000 4e f4 69 bd 42 a8 2b be f3 cf 26 3d 3a 76 a8 bc
       -0.057117753 -0.16763404 0.04072566 -0.020564187
000010 8a 17 5a 3e f4 13 bb be de eb 1b 3e 98 8b c9 be
       0.21298042 -0.3653866 0.15226695 -0.39364314
000020 cf 63 e4 bd 7a 6c 94 be 81 86 63 3e 33 56 43 bd
       -0.111518495 -0.2898901 0.22219278 -0.047689628
000030 38 2a 00 3e 2b ef ba 3c 43 be 81 be 2a d0 11 be
       0.12516105 0.022819122 -0.2534047 -0.14239565
000040 54 02 46 bb 53 dc b7 3c ad 62 0d be 66 2e 18 be
       -0.003021379 0.022443926 -0.13807173 -0.1486145
000050 7b 33 cc 3e 30 10 b8 3d a2 83 54 bd ee 7d 0d bf
       0.39883026 0.089874625 -0.051883347 -0.5527028
000060 eb 47 54 3e 56 25 c1 3d 05 08 0a bf 0e 62 6c 3d
       0.2073056 0.094309494 -0.53918487 0.0577107
000070 3e 7b b9 3e 55 92 16 bd 2d 0c 19 3f 60 b3 a1 be
       0.3622684 -0.036760647 0.59784204 -0.31582165
000080 ac fe e1 3d c2 12 49 3e ba de c5 bd 90 04 65 bd
       0.11034903 0.19636062 -0.09661622 -0.055912554
000090 5e bf 34 3e 96 64 16 be 57 9a 69 bc 46 c8 81 3e
       0.17651126 -0.14686808 -0.014257989 0.2534811
0000a0 7d 21 9c bd d4 3e bc bd 92 bd db 3e 14 dd 1f bb
       -0.07623575 -0.09191671 0.42918068 -0.0024393247
0000b0 c5 69 5e bd a8 2b 2d be b4 03 ed 3d 40 ee 52 be
       -0.05430009 -0.16911185 0.11572972 -0.20598698
0000c0 9f 9c 30 be e1 07 a8 bd 60 e9 6b 3b 62 7d e5 bd
       -0.17247246 -0.08204628 0.0035997257 -0.112055555
0000d0 90 d2 70 3b 08 31 da 3d d6 a2 5f bc a2 f1 ee 3e
       0.0036746599 0.10653883 -0.013649663 0.46668726
0000e0 0c 49 93 3c b3 82 24 bf fd 61 bf be cd 80 23 3f
       0.017979167 -0.6426193 -0.37379447 0.6386841
0000f0 bf fd 00 bd e2 c5 20 3e a2 89 35 3c 03 e9 fc 3d
       -0.03149199 0.15700486 0.0110801775 0.12349131
000100 42 ee ec 3e d8 2f 28 bb e9 31 fc 3d e8 df a1 be
       0.46275526 -0.0025663283 0.12314207 -0.3161614
000110 ee 36 ee 3d b2 c8 c8 3e 92 55 35 3e 74 8c 3e be
       0.11631571 0.39215618 0.17708424 -0.18608266
000120 1c 55 20 3e 66 d5 aa 3e 0b 31 05 3e 9b 93 c8 3e
       0.15657467 0.33365935 0.1300699 0.39175114
000130 b4 a4 a4 3e fa 35 a5 3d 57 fa 89 be 90 ff f1 3d
       0.3215691 0.08066936 -0.26948807 0.11816323
000140 68 42 c0 3e d0 fc 39 bc 44 6e 3d 3e 24 af ac bd
       0.37550664 -0.011351779 0.18499094 -0.08431843
000150 b2 24 a2 3e a6 0d 37 be d6 c6 f4 bc 10 26 e5 3d
       0.3166862 -0.178763 -0.029879969 0.111889005
000160 49 23 8e bd 0c 88 fa be 1d 73 7f be e4 ea 74 bd
       -0.06940324 -0.4893192 -0.24946256 -0.05979432
000170 b6 62 ec be 48 d7 df bd 48 05 02 be fa 35 35 be
       -0.4616906 -0.109297335 -0.12697327 -0.17696372
000180 20 f8 a9 bd 1a 93 22 3c 4c d5 58 bc 43 2a c4 3e
       -0.08299279 0.009922767 -0.013234448 0.38313493
000190 dc 96 9c bd 62 ef f0 3d 03 55 95 3e bf b0 1f be
       -0.07645962 0.11764409 0.2916642 -0.15594767
0001a0 e0 ff a6 3e a9 b5 a2 be e8 4a 8a 3e 0b a8 f1 3d
       0.32617092 -0.3177922 0.27010274 0.1179963
0001b0 e7 11 6b bd 00 59 3c 3d 8a 3c 77 be 9e 84 63 3e
       -0.05739012 0.045983315 -0.24144188 0.22218558
0001c0 38 b8 4a bd 40 59 ec 3c 57 86 f3 3b 0f 60 a7 bd
       -0.04949209 0.028851151 0.007431786 -0.081726186
0001d0 2e 8c 96 3c 8d 7b 2c 3c 74 63 04 3e 88 ca 40 be
       0.01837739 0.010527504 0.12928563 -0.1882726
0001e0 c0 a8 aa be 70 35 6a be 35 aa 5b 3d 2f 80 f5 bd
       -0.3333187 -0.22871947 0.05362912 -0.1198734
0001f0 4a 6d 85 3d 76 ae bf bc 2c 3b 71 be c3 8f ba be
       0.06514986 -0.02339862 -0.23557729 -0.36437806
000200 7d 58 6a be 75 e7 ae 3e a4 7e a6 be c2 a3 15 bd
       -0.22885318 0.34160963 -0.32518494 -0.036533125
000210 84 f5 ec 3d 0a 34 df bd d6 94 12 3e 78 ea 66 3e
       0.11570266 -0.108985975 0.14314589 0.2255038
000220 fe 67 86 3b df 02 41 3e f9 32 08 bf d1 14 1d bd
       0.0041017523 0.18848751 -0.5320278 -0.03834993
000230 fa 4f 12 3e 68 21 0a 3e b7 f7 82 3e 10 2f b1 be
       0.14288321 0.13489306 0.25579616 -0.34606218
000240 dd f8 6b 3c 58 ba 70 3e bf 54 fd 3e 87 1e 20 be
       0.014402595 0.23508584 0.4947872 -0.15636645
000250 da 69 0b 3e 68 06 36 3e 0a 8d dd bd ea 43 6c be
       0.13614598 0.17775881 -0.10817917 -0.23072782
000260 9c 91 20 bf c2 e2 6e 3c b6 94 f4 bd f8 b0 e2 bd
       -0.6272218 0.01458043 -0.11942427 -0.1106891
000270 86 78 c4 3a bb 90 83 3e 6a 15 45 be c0 fb 7d be
       0.0014989532 0.25696358 -0.1924645 -0.24803066
000280 42 8b 9a 3d 30 a7 6d be 63 58 0c be b6 8f aa be
       0.075460926 -0.23208308 -0.13705592 -0.33312768
000290 66 8b c9 3d eb 4f 10 3e 30 6c 83 3d a1 5b 67 3e
       0.09841041 0.14092986 0.064171195 0.22593547
0002a0 54 b9 ab 3d 02 57 29 3d 20 ca ae 3d 6a a1 7a 3e
       0.08384958 0.041342743 0.08534646 0.24475637
0002b0 8b 1c b2 3e 34 f9 bb 3e 65 dc d3 be fd 5a 0b bd
       0.34787402 0.36713564 -0.41379085 -0.03402232
0002c0 ce f3 fb 3d e0 a1 a0 be 7a f1 8d be a7 ef 6d 3e
       0.123023614 -0.313735 -0.27723294 0.23235951
0002d0 2c 2d 1c 3e 9d 4d 96 3d 78 0d 9f 3e 4a c2 79 3d
       0.15251607 0.07339022 0.31064963 0.060976304
0002e0 1c e8 17 bc a4 27 80 3e f1 68 f9 bd de 20 b4 be
       -0.009271648 0.25030243 -0.12178219 -0.35181326
0002f0 e6 11 b6 bc f8 6b 75 bd 0a 52 48 be 5d 7a 95 3d
       -0.022225332 -0.05991742 -0.19562545 0.072987296
000300 ea e1 4e 3e 84 60 06 bd b2 79 d6 be 2f ef 8f be
       0.20203367 -0.03280689 -0.4188972 -0.2811217
000310 de 1c b8 be 5c 64 e1 3d 96 31 aa 3d 2a 07 cb bd
       -0.35959524 0.1100547 0.08310239 -0.09913476
000320 b6 82 a1 ba e2 d6 1c bd 80 75 29 3d c4 64 0d bf
       -0.001232228 -0.038290866 0.041371822 -0.5523188
000330 ba 09 14 3d aa 83 be 3e 48 f5 e0 bd cf b4 8c 3d
       0.03614209 0.37209827 -0.10984284 0.06870424
000340 5e b3 7b ba ca 74 82 bc 9a 63 f6 be 5a af 7d be
       -0.0009601618 -0.01592483 -0.48122865 -0.24773923
000350 08 c9 b4 3e 54 f1 c0 be 8e 50 b1 ba 7e d4 f4 bd
       0.35309625 -0.3768412 -0.0013528035 -0.11954592
000360 cc 5a 5c 3e 7f 44 15 3f c6 a6 6c bd 5d 32 21 3f
       0.21519011 0.5830764 -0.057776235 0.62967473
000370 92 3e d9 3d 85 b9 c5 3d 64 4e 2e be ea 5b 26 bd
       0.106076375 0.09654526 -0.17022091 -0.040615
000380 9e d6 98 3e 44 57 b5 3d e2 52 b5 be 39 27 e3 3d
       0.2985124 0.08854535 -0.35414797 0.110914655
000390 22 86 8a be 84 30 ee 3e d1 b7 03 be 29 70 99 bd
       -0.2705546 0.4652139 -0.12863089 -0.07492096
0003a0 14 81 98 be 13 78 98 be c8 07 9f 3e 6d fd 34 be
       -0.2978598 -0.2977911 0.31060624 -0.176748
0003b0 77 74 6e 3e 6e 69 ff bc ea 61 a8 be d2 f7 63 3e
       0.23286615 -0.031178202 -0.32887203 0.22262505
0003c0 d8 e3 73 3e 5f 35 22 3e 20 14 92 3d 2c be b6 be
       0.23817384 0.15840672 0.07132745 -0.35691965
0003d0 6e 9e f5 3c 04 5d c5 bd f5 2e 44 3e 22 40 3d be
       0.029982772 -0.09636882 0.19158538 -0.18481496
0003e0 18 b6 9d be 74 c5 5c bd 7f 5a ca 3d d6 48 09 3f
       -0.3080299 -0.053899243 0.09880542 0.53626764
0003f0 ca dc be bc be d6 06 bf ff 09 4d 3e 4c b8 33 bc
       -0.02329864 -0.5267142 0.20023344 -0.010969233

layer3.bias f4 [62]
000000 14 a0 b0 3e 2a 9c 84 3e c6 37 4b bd e2 c2 b1 3c
       0.3449713 0.25900394 -0.049613737 0.021699373
000010 ed f9 e0 bc 2a b6 25 3e bd 5a e6 bd 9a b9 01 be
       -0.027462924 0.16182771 -0.11247776 -0.12668458
000020 2c c5 29 3f 39 ff cf 3d 6e 79 2a 3d b5 af 82 3e
       0.66316485 0.10156102 0.04161971 0.2552468
000030 ad f9 7d 3e 68 d5 c7 3d 42 3a a0 bd 60 c9 26 3e
       0.24802275 0.09757501 -0.07823612 0.16287756
000040 42 ce af bd 2c 0e d7 3d 09 ba d7 be d8 12 b3 be
       -0.085842624 0.1050075 -0.4213412 -0.34975314
000050 b6 e9 3e 3d fc 12 8d be 5b 0f 26 3e 0b bd fd 3d
       0.046609603 -0.27553546 0.16216795 0.12389573
000060 4c 5d 55 3e 97 8e 96 3d b1 fd 87 3d e0 a2 0d 3e
       0.20836371 0.073514156 0.06640185 0.13831663
000070 58 69 5a 3e ab d2 16 be 56 81 ce 3e b5 14 8e 3d
       0.21329248 -0.14728801 0.4033305 0.06937543
000080 4a 16 89 3e fb 29 39 bd 3c 11 3e 3d ac 7b 13 be
       0.26774818 -0.04520605 0.046403155 -0.14402646
000090 32 16 a6 bd bc 4e 55 bd 0e 54 43 be e0 3f 5e bd
       -0.08109702 -0.05207704 -0.19075033 -0.054260135
0000a0 56 b0 bb bc 24 c5 64 be f9 1b 7f be db 01 8e 3e
       -0.022911232 -0.22340828 -0.24913014 0.2773579
0000b0 c3 88 a2 be 6f 6a 20 bd e0 4a 17 3e fa 48 23 3e
       -0.31744966 -0.039164003 0.14774656 0.15945807
0000c0 90 5c 94 be 82 6d 28 3e 9e 81 01 be 1c 39 5e be
       -0.2897687 0.16448024 -0.12647101 -0.21701473
0000d0 e5 33 58 be a1 81 8a be bd 6d 11 be 58 4f 36 be
       -0.21113546 -0.27052024 -0.14202018 -0.17803705
0000e0 ed 79 2a be 20 46 56 be 22 28 f6 bc d2 94 bf 3c
       -0.16648073 -0.20925188 -0.030048434 0.023386393
0000f0 98 3e 39 3c f6 82 94 bd
       0.011306427 -0.07251541
