assignment3_results/models/fed_c4e1.pth (torch, 502610 bytes, 6 tensors)

layer1.weight f4 [128, 784]
00000000: bb11 013c 4401 1fbb 6e3f 093b eaed 6fbc
00000010: 8815 11bc e0e8 38bb 2ad1 d63b dc36 de3b
00000020: 0cd3 cf3b 90dd dbbb ffbd b8bc 92d1 2abc
00000030: 6c7d 90bc 4ef5 a33b a849 223c 15f5 7c3c
00000040: 887b 6abc 4df6 283c 977e 683b 0cc4 803b
00000050: 05ed 86bc a52d 633c 0297 d83b b4cc 06bb
00000060: c886 873c e922 143c dfab 38bc 2853 623c
00000070: 2418 b83a 9453 21bc b566 e7bb c028 923c
00000080: 2d08 443c ef9c fbbb 5c8c 1d3b 71ab 853a
00000090: 94bd be3c 4f48 2339 edad f13c e3fc 7d3c
000000a0: 70e7 433c e50c 023b cc35 dbbb 6ff7 61bb
000000b0: da7c cb3b 50ee 54bb 5af7 62bc 8239 d0bb
000000c0: 435b ac3c d57e 153c 1a4f a4ba ecb9 4a3c
000000d0: efb9 7cbc dc0e 773b cea0 913b ba0e 97bb
000000e0: be9a 183a f15a 523b 6317 8739 e03d 173c
000000f0: 54f8 2abc b0ea 9bbb d614 2fbb 4cab c8b9
00000100: cbf2 c83c 6c4e d33b 27ee 5b3b ea2e b03b
00000110: f6ac ac3b 0005 71bc 3b14 32bc 813a 6e3c
00000120: e2b2 f13b e1a5 adbb 53bb dd3a cece 9a3b
00000130: e318 7c3c 5cf8 8f3b 6a79 e0b8 9895 cb3b
00000140: c157 123c 8dae cd3b 1381 75bc 39e1 9cbc
00000150: 52ad 053c 9873 3b3b 4030 8c3a 8ad4 89bb
00000160: b639 273c fe42 303c 386e 153b 66c6 513c
00000170: e1b5 223c cfef ca3b cd64 5fbc 4850 0fbc
00000180: 8ab7 6ebc 5315 473c b798 6ebb 24fb d43b
00000190: 28d0 8dbc e706 66bc 04dc 69bc 35de 1e3c
000001a0: a0f6 cb3b 2c68 193c 5a6b 2ebb 3634 b6ba
000001b0: a0f3 003c 44f7 b63b e3f5 a23c 0235 afbb
000001c0: f95e b5b9 9b6a 433c b85b 843c 8d74 6ebc
000001d0: 5e01 2a3b 0d5f 3dbc dcd9 043c fe04 333c
000001e0: 6434 2dbc 4a9f 813c 940f d9bc c099 d8bc
000001f0: 656b 82bc 9b7e 3abc 3f8a aabc 10f5 e9bb
00000200: 54ed 40bd 6bbc 68bd 26db 703b d185 81bc
00000210: e85b 29bc ca8a abbb cfaf 6e3c 45c9 aaba
00000220: 6fa5 83bc e362 6bbb 4dfd 1a39 45b3 213a
00000230: f4b2 063c 38e7 e6ba a28f d23a 7862 f2ba
00000240: e25c 41bb 7a96 173c 776f 103b e4f6 89ba
00000250: f7af 183b 4c8a 50bc 4763 3abd e5bc 6cbd
00000260: 6d8f 7abd de86 99bd ded8 acbd 828e 80bd
00000270: 76e2 90bd c0ab 80bd ca69 f3bb 745a cabc
00000280: 3b95 bbbc bb0e c33c d44e 623b 8a51 4bbc
00000290: 3190 803c fc56 f63b f2d4 863c f051 aabc
000002a0: 765d bfbb 52eb 91bc b71f 993c 569f d9bb
000002b0: 96bb 5cbb 26fe 17bb 6697 333c 98fa c03b
000002c0: 7634 9db8 7218 fbbc 4f17 66bd 69de debd
000002d0: 9451 f5bd f6d5 42be 4b11 7cbe f84a e3bd
000002e0: 19c2 a9bd 3a36 f2bd 3886 16be 5530 34bd
000002f0: b863 15ba aded 95b9 1018 8e3c ae85 9a3c
00000300: debf 9a3c d079 baba eae2 a23b c2e5 193c
00000310: 82c0 09bc 11d0 af3c c615 513b a52b 923b
00000320: 2f99 323d 7ac2 acba 4dd6 4a3c 23b9 023d
00000330: b899 8fbd f45d f1bc c27e 0ebd bf85 acbd
00000340: 7796 d5bd 3063 7abe d1ff a8be abf1 45be
00000350: 1c19 83be cb77 23be 9924 c3bd 76ff 49bd
00000360: 3042 5e3d dc07 b03c c06a c33d bb2a 563d
00000370: 2702 6d3c 8e76 773c 94d3 2fbb 88a0 443c
00000380: 503a 433c ec44 8fbc 8264 933c 2739 003d
00000390: db2c 943c f2e8 713c 0286 673c 3a3f 843d
000003a0: e291 153d d427 623c 593a dd3d 2081 80bd
000003b0: 99ad 07be 1d39 45be 3fd7 27be 0aa1 2dbe
000003c0: eebc 2abe 067f f0bc b4ed 6e3d e861 1e3d
000003d0: a44b bd3d cd86 9b3d 8a5b 5a3d 3e08 e53c
000003e0: 5196 65bb 8a8b a63c 6e96 6a3c dca5 823c
000003f0: f91f 723c 7679 4bbc 2c16 6ebc 0cb1 123d
0.007877762 -0.002426223 0.0020942348 -0.0146441255 -0.008855231 -0.0028214976 0.006555696 0.006781442
0.0063422974 -0.006709762 -0.022551535 -0.010425942 -0.01763793 0.005003608 0.009905256 0.0154392915
-0.014311679 0.010312629 0.0035475844 0.0039296206 -0.016470442 0.013865863 0.0066097984 -0.002056879
0.01654376 0.009041526 -0.011271446 0.013813771 0.001404528 -0.009846587 -0.007061804 0.017841697
0.01196484 -0.00767862 0.002403996 0.0010198188 0.023283757 0.00015571828 0.02950188 0.015502187
0.0119570345 0.0019844112 -0.0066897627 -0.0034479757 0.006209952 -0.0032490678 -0.0138529185 -0.0063545117
0.02103961 0.009124477 -0.0012535781 0.012373429 -0.015425189 0.0037698066 0.0044442182 -0.00460991
0.0005821398 0.0032097662 0.0002576663 0.009231061 -0.010435183 -0.0047582015 -0.00267153 -0.000382746
0.024529835 0.0064485576 0.0033558698 0.0053766863 0.005269642 -0.014710665 -0.010869081 0.014540316
0.007376061 -0.0052993153 0.0016916789 0.00472436 0.015386793 0.0043936204 -0.000107037675 0.0062129013
0.008932055 0.0062769116 -0.014984387 -0.019150363 0.008158999 0.0028602835 0.0010695532 -0.004206245
0.01020663 0.01075816 0.0022801291 0.0128036495 0.009931059 0.006193138 -0.013634873 -0.008747168
-0.014570126 0.01215108 -0.0036406943 0.006499665 -0.01731117 -0.014039732 -0.014273647 0.009696533
0.0062244684 0.009363215 -0.002661428 -0.0013901058 0.007870585 0.0055836756 0.019892639 -0.005346895
-0.0003459377 0.011927272 0.016157016 -0.014554155 0.0025940756 -0.011558306 0.008108582 0.010926483
-0.010571573 0.015823025 -0.026496686 -0.026440501 -0.01592035 -0.011382724 -0.020817874 -0.0071398094
-0.047101334 -0.056820314 0.0036751716 -0.015810879 -0.010336854 -0.005235051 0.014568283 -0.0013029954
-0.016070096 -0.0035917095 0.00014780946 0.0006168376 0.008221377 -0.0017616516 0.0016064534 -0.0018492481
-0.0029504825 0.009252185 0.0022039094 -0.001052585 0.0023298243 -0.012728285 -0.045504835 -0.05779733
-0.061171938 -0.07496427 -0.08439802 -0.06277181 -0.07074444 -0.06282759 -0.0074283825 -0.024701335
-0.022898307 0.023810735 0.0034531849 -0.012409577 0.015693756 0.0075176936 0.016458962 -0.020791024
-0.005839999 -0.017812405 0.01869188 -0.006641309 -0.0033681146 -0.0023192256 0.010961389 0.005889248
-7.496115e-05 -0.030651305 -0.056174573 -0.10882265 -0.119784504 -0.19026932 -0.24615972 -0.110982835
-0.08288974 -0.11826749 -0.14699638 -0.043991406 -0.0005698758 -0.00028596577 0.017345458 0.018862572
0.018890318 -0.0014226977 0.004970898 0.009393157 -0.008407714 0.021461518 0.0031903847 0.0044607692
0.04360312 -0.0013180517 0.012380195 0.03191484 -0.070117414 -0.029463746 -0.034788854 -0.084239475
-0.104290895 -0.244519 -0.33007672 -0.1933047 -0.25605094 -0.15963666 -0.09528465 -0.049315892
0.05426234 0.021488123 0.09541845 0.052286845 0.014465845 0.015103949 -0.0026828991 0.012001164
0.011915758 -0.01748892 0.017992262 0.031304505 0.018087795 0.014765011 0.014131071 0.06457372
0.036516078 0.013803441 0.108021446 -0.06274629 -0.13249816 -0.19260068 -0.16390704 -0.16955963
-0.16673633 -0.029357444 0.05833216 0.03866759 0.09242943 0.075940706 0.053309955 0.027958032
-0.0035032223 0.02033021 0.014318092 0.015948229 0.014778131 -0.012419095 -0.014531653 0.035813376

layer1.bias f4 [128]
00000000: a849 15bc 4126 bdbc e6ae ee3b d504 1c3c
00000010: 1728 50ba 1bac aabc 2734 95bc 21cc 0a3d
00000020: 2cbf 17bd cf60 9dbc 37b6 fabc f6bd 50bb
00000030: 441a 79ba b78b 70bd 96f5 5ebc cef3 a73a
00000040: 15a7 a0bc 3079 b6bc f6b1 e5bb 8ccc 0e3b
00000050: 6da6 7e3c 3e6e 3a3b 0071 d2bb 9b4d 9b3b
00000060: f991 9ebc c18a ed3c 66d4 67bc b3c8 00bd
00000070: 4660 d1bb 0e37 473b 5e44 9c3c 51c5 b9bb
00000080: 9213 1bbb 3610 ddbc cee1 6abc 9af4 87bc
00000090: a48e 433c 1301 0dbc a731 21bc 8a03 08bc
000000a0: 497f b33b 3031 ddbb 9a05 01bc 5cb6 c4bc
000000b0: 34ba 2d3c 70c2 903c 4553 cebc 0e5b 393b
000000c0: fe45 bc3a 0695 65bc 6860 fbb9 7970 1fbd
000000d0: df80 48bc 80bb 58bc 1fca 24bd b0f4 1cbc
000000e0: f74d e2bb 1326 bbbb caf3 e3bb e0e1 b7bc
000000f0: 826b 27bc 7254 4abd bc2d 11bc 5b5f 40bc
00000100: 6a7f f53b 1505 cbbc fc72 ebbc e2da 96bb
00000110: a0f1 a1bc 85c1 8b3c 5891 7bbc 5652 6ebb
00000120: 7aa3 2dba 1e73 04bb dddf 33bc 7a7c f33a
00000130: fa57 64bc 9908 c4bb 917e 3bbd 932e 3aba
00000140: 7565 28bc 3379 9a3b f6ef 85bb e8b8 6c3c
00000150: 1c81 b23c a312 003d 11f4 b4bc ce26 b6bc
00000160: 72cc 453c d627 15bb c57c 89bc 719b f93b
00000170: 9a3d 78bc 36ec 79bc b6b9 4cbd a6c4 91bc
00000180: 77b2 403c 50c8 863b 9836 18bd f445 2b3c
00000190: 116d 223c 8040 0b3b e687 4ebb f5f8 dc3c
000001a0: 5453 b0bc 747f bbba 9257 463c 7d9b 27bc
000001b0: d20b a1bc 7614 0cbc 0810 183b c48d cfbb
000001c0: 8ae3 14bd 89ba 9a3c 0b5f 9eba 1af6 c1bc
000001d0: 3e79 ccbb 5caa b8bc a8d5 d03b 8d25 47bc
000001e0: 01f9 303c 1c79 ca3c 23de 903b 0926 d6bc
000001f0: 2001 b3bc 457b b1bc 208d ac3c 3aef dd3c
-0.009111799 -0.02308953 0.007284033 0.009522636 -0.0007940544 -0.02083402 -0.018213345 0.03388608
-0.03704755 -0.019211201 -0.030604465 -0.0031851507 -0.000950251 -0.058726992 -0.013608357 0.0012813748
-0.01961092 -0.022274584 -0.00700974 0.00217894 0.015542609 0.0028447057 -0.006422162 0.004739476
-0.019356715 0.028996827 -0.014149761 -0.0314414 -0.0063896505 0.0030397805 0.019075569 -0.005669274
-0.0023662788 -0.026985269 -0.014336063 -0.016596127 0.011935864 -0.008606213 -0.009838498 -0.008301625
0.00547782 -0.0067502484 -0.007874871 -0.024012737 0.010603476 0.01767084 -0.02518619 0.0028283033
0.0014364121 -0.014012581 -0.0004794628 -0.03892562 -0.0122377565 -0.013228297 -0.04023182 -0.009579822
-0.006906267 -0.005711326 -0.006956552 -0.022446573 -0.010218503 -0.04939694 -0.008861002 -0.0117414845
0.0074919956 -0.024782697 -0.028741352 -0.0046037296 -0.019768536 0.01706005 -0.015354477 -0.0036364994
-0.0006623786 -0.0020210217 -0.010978666 0.0018576526 -0.013936991 -0.0059824702 -0.045775 -0.0007102277
-0.0102780955 0.004714155 -0.0040874435 0.014448382 0.02179008 0.031267773 -0.022089036 -0.0222353
0.012072669 -0.002275934 -0.016783128 0.007617407 -0.015151406 -0.015254071 -0.049981795 -0.017793965
0.011761299 0.0041132346 -0.03716144 0.01045369 0.009913699 0.0021248162 -0.0031514107 0.02697418
-0.021524109 -0.0014304952 0.012105839 -0.010229942 -0.019658957 -0.0085498 0.0023202915 -0.0063340385
-0.03634981 0.018887775 -0.0012082768 -0.02367692 -0.006240039 -0.022542171 0.006373126 -0.012154949
0.010801555 0.024715953 0.004421012 -0.026141183 -0.021851122 -0.021665225 0.021063387 0.027091611

layer2.weight f4 [128, 128]
00000000: 5a11 cb3c e260 f83d eaaa ccbd ac0a 333d
00000010: e556 ce3d afc9 73be 268c 2f3d 443c c83c
00000020: 4930 753e ff39 273e 2a2f 963d 1a7e 1b3d
00000030: 7a1b 0dbd 8358 cfbe 08ad 603e c522 41bd
00000040: 746e b3bc cc03 bb3d 1087 0abf a4f5 173e
00000050: e31e 803c 0c7b e0bb aeae 093d a8e9 fc3b
00000060: 46f4 c6bc 724a f53d fc51 613e d18f 68bd
00000070: 5c28 5dbb e02d 7d3d 03e4 41bd 0605 dbbb
00000080: c68b f1bc 591e 003e 8425 a4be 91fd 2fbc
00000090: 4475 b2ba 1afe 2e3d 0ea6 1b3e 4149 9d3d
000000a0: df5b d7bd 0cdb ce3c b07a c13d 6bf7 3b3e
000000b0: 703b a73b ce5e bd3c addf 0d3e 7bfb 073e
000000c0: 848c 26bd 6c1d 2a3e da81 db3d a6a4 7ebe
000000d0: 4e8c 10bc c4d2 2d3d 1e3d 59bd a18d d83b
000000e0: b4ec c8bc cbb1 dabc 5245 48bd 0924 a83d
000000f0: 1849 063e 2844 0cbd 9875 8c3b b696 6b3b
00000100: c085 383d d214 37be 4a04 643d adbb 433d
00000110: 46c3 203c 62fe 5b3d f818 8cbe ed67 613e
00000120: eed2 963b c2ef c53c c75e 653e f969 223d
00000130: 0922 493e aafc 7cbd 9f82 83be 2c66 b6bc
00000140: ea61 3b3c 0575 d0be 587d 253d 7239 20bc
00000150: 0e68 49bd 0741 09be 0488 c9bd 612b b6bd
00000160: 5b76 973e a4b7 ecbc 2e82 e33d 282d 87bc
00000170: c234 e53d 92a5 6cbd a404 463c 1e73 04bd
00000180: 0435 3738 6aca 913c 5736 92bd d00c 93bc
00000190: 5acc 003c 3484 91bc 76b7 eaba 04df c43c
000001a0: cdbe 75be dd5a 0a3e 587d 453b bac2 3a3e
000001b0: 982f 72bd a30f 583e 16e4 d03c 4e85 25bd
000001c0: d272 33be 7e8a f43e f728 053d e6d0 14be
000001d0: ae21 c2be 847f f4bd 257c 2fbd ed97 4bbe
000001e0: 27ee 453e 2462 58bb 6c4c 86bc 287d 57be
000001f0: a6f3 523e 28ac 08bc abef 7f3e 1620 9cbd
00000200: d724 35bd 5dfc bf3d 2d0f 023e 2cb5 05bb
00000210: be8d 3fbb 3519 023e 3c14 f1bc a775 5c3d
00000220: fd1f bebd 3a83 3a3c 4505 c73d 640e 4d3d
00000230: 1292 06bd 8ad7 363e 8699 9cbd ee77 803e
00000240: 50ae 0d3b 7979 ad3e 25eb 39be b1d0 1b3d
00000250: 5cb1 213e f0e6 953a e309 e4bc a341 533c
00000260: 32ba 8bbc b494 d4bd 2225 2fbe d1a9 26bd
00000270: a4a8 113d 130c 2a3e 5cea f73c b0d8 9b3c
00000280: 1263 72bc ecaa e53d 63be 793e 008c 273c
00000290: 6e2e 4abd 243c 6b3e bff3 abbd 88a1 7cbe
000002a0: 4ffe e7bc 8b7e d2bc 7db3 4a3d 380c af3e
000002b0: 84a2 48bd 8ad0 a5bc 38ee 30be 40a1 13be
000002c0: 38ce 263d ee69 f93c 53af 643d ccae 963e
000002d0: 947a 0d3d f98f 963a 903c 01bd 1c56 a1bc
000002e0: 54ce 11bc 1c34 583d 4be6 7c3d 5809 ec3d
000002f0: ab16 78be 83e5 823e 241c 06bd 0add e03b
00000300: 070e 6ebd d711 78bd 58fa efbd 6e37 4c3d
00000310: 6c2c f2bc ace1 33bd 1792 16be a701 38be
00000320: ec08 023d 38ec 96bc 3143 d3bd d83b 0abd
00000330: 54c9 f6bd aac2 efbc 0583 e23d 6cea 1b3c
00000340: 1f10 9e3e afe4 bd3e a2a3 14bd 2042 763b
00000350: 8f46 483c ebe9 293c ea4a efbd ed28 3d3d
00000360: ca69 2d3d 6643 343b 4e0b 6d3c 5e96 b6ba
00000370: 53af b0bd 4c31 82bb 116d 683e 506a ecbc
00000380: e841 bbbc aecc 133c 5520 12be 761a 88be
00000390: fc49 093d 1240 8ebd d2c9 19bd 8732 3cbe
000003a0: 6b58 4a3e aa7a 4dbe 20b7 37bc 532e 06be
000003b0: 2913 1b3e b3c5 73be 9081 473c 4255 5bbd
000003c0: 8a96 473d a816 82bd a684 82bd 1e3c 06bc
000003d0: 5cc0 513d f02a 963e 10a0 883c 0efe 673e
000003e0: a2e9 abbd 1260 c7bc 1106 333c bf42 643c
000003f0: ca22 46bd cde6 7abe 7ce7 84bd 1013 273e
0.024788547 0.12127854 -0.09993537 0.04371135 0.100751676 -0.23807405 0.042858265 0.0244428
0.239442 0.16330718 0.073332146 0.037962057 -0.03445003 -0.40497217 0.21941006 -0.0471523
-0.021903254 0.091315836 -0.5411234 0.14839798 0.015639728 -0.006850606 0.033613853 0.0077182837
-0.0242864 0.1197709 0.22003931 -0.05677778 -0.003374598 0.061811328 -0.04733659 -0.0066839484
-0.029485594 0.12511577 -0.32059872 -0.010741607 -0.001361527 0.0427228 0.15200064 0.07679988
-0.1051557 0.025250934 0.09447229 0.18356101 0.005103521 0.023116495 0.13854857 0.13279526
-0.04066135 0.16612786 0.107181266 -0.24867496 -0.008822514 0.04243733 -0.0530368 0.0066086804
-0.024526931 -0.026696106 -0.048894234 0.08209998 0.1311382 -0.034244686 0.004286479 0.0035947985
0.04504943 -0.17879036 0.055668153 0.047786403 0.009812182 0.053709395 -0.273628 0.22012301
0.0046027815 0.024162177 0.22399436 0.039651845 0.1964189 -0.061764397 -0.25685593 -0.022265516
0.011436919 -0.4071428 0.04040274 -0.009779321 -0.0491715 -0.13403712 -0.09840396 -0.088949926
0.29582486 -0.02889616 0.11108814 -0.016501024 0.111917034 -0.057775088 0.012086067 -0.032336347
4.3679975e-05 0.017796714 -0.07139271 -0.017950445 0.007861221 -0.017763235 -0.0017907459 0.024032123
-0.23998566 0.13511224 0.0030134525 0.18238345 -0.05912742 0.21099715 0.025499385 -0.040410332
-0.17524269 0.4776191 0.03250977 -0.14532813 -0.3791632 -0.11938384 -0.042843003 -0.19882174
0.19329129 -0.003301748 -0.016393863 -0.21043837 0.20600757 -0.0083418265 0.2499377 -0.076233074
-0.044224586 0.09374306 0.12701102 -0.0020402176 -0.0029228772 0.12704928 -0.029428594 0.05382314
-0.09283445 0.011383826 0.09717802 0.050062552 -0.032854147 0.17855659 -0.0764647 0.250915
0.002161879 0.3388174 -0.18156107 0.03804082 0.15790313 0.0011436623 -0.027836746 0.012894067
-0.017056558 -0.10379925 -0.17104009 -0.040689293 0.03556122 0.16606168 0.030263118 0.019024223
-0.014794128 0.112142414 0.24389033 0.01022625 -0.049360685 0.2297216 -0.083961 -0.24670994
-0.028319506 -0.025695106 0.04948758 0.3418901 -0.048983112 -0.02024104 -0.17278373 -0.1441698
0.04072401 0.030446019 0.055831265 0.29430234 0.034540728 0.0011486999 -0.031551898 -0.01969438
-0.00889929 0.05278407 0.061743062 0.1152522 -0.24227397 0.2556573 -0.03274168 0.0068622874
-0.058118846 -0.06056389 -0.11717671 0.04985755 -0.029562198 -0.04391639 -0.14704166 -0.1796938
0.03174679 -0.018423185 -0.1031555 -0.033748478 -0.12050119 -0.029267628 0.11060146 0.00951634
0.30871674 0.37088534 -0.036288865 0.0037576035 0.012223854 0.010370712 -0.116842106 0.046181608
0.042337216 0.0027505993 0.014468027 -0.0013930311 -0.086271904 -0.003973162 0.22697856 -0.028859288
-0.022858575 0.009020967 -0.14270146 -0.26582688 0.033517823 -0.06945814 -0.037545986 -0.1837865
0.19760291 -0.20066324 -0.011213094 -0.13103609 0.15144028 -0.23805885 0.012176886 -0.053548105
0.04872755 -0.063519776 -0.06372957 -0.008193044 0.05120884 0.29329634 0.016677886 0.22655508
-0.08394171 -0.024337802 0.010926739 0.013931929 -0.04837302 -0.24502106 -0.06489465 0.16315866

layer2.bias f4 [128]
00000000: 0f59 d63e 4421 a9bb 5e09 4f3e 38b9 083d
00000010: 9bc0 ecbd f090 393d 2158 853d a7eb a7bc
00000020: 983e a6bc 3021 d3bc f225 f9bd 9bc8 ecbb
00000030: b89d bf3d 0d02 cd3d 0413 953e 7c1d 023e
00000040: 30cb 683d 2f99 c8be a6b3 acbd fa90 873b
00000050: 966f 24be 5aaf 73be a8da cdbc 4211 2a3e
00000060: 5e87 2ebe 1d18 83be d876 7abe fe63 b5bd
00000070: 79a0 a53e ed2b 3cbd ac7c 993d d936 1bbe
00000080: e0ea 603d 83fe bbbd 5487 78bd fc6c 253e
00000090: 2e7a 21be 1fb0 2c3d 79ce 043e 29da 5fbe
000000a0: 5c7d 8c3e 6bf2 583b 241e 923e 8041 7bbd
000000b0: 715c eb3d ab90 b63e 0513 5f3e a6aa 7b3d
000000c0: 4b49 ddbd df38 e53b e006 95bd 16bc 823e
000000d0: 506e 25be f0c3 2abe cbc2 053e c64c ed3d
000000e0: 7811 3b3d b700 cc39 8cf7 cabd f64f 30bc
000000f0: ab43 773d 4a6b c53c 7d74 d739 2b68 a73d
00000100: 12e8 f63c 30d8 c9bc 1e5c 0e3e 675a 99be
00000110: ac1c 77bd bd0d 0c3d 2ecd c93e dee5 f1bc
00000120: 1c9f af3d a9da b0bd 600b fabc a884 dc3e
00000130: 5bc0 e2bd e21a 10bd 4eaa 2e3e 27b7 25bd
00000140: c247 82bd 92d5 3cbe 37a0 91bd f2ec 173d
00000150: 2b9d 743e f20d ca3d 6a95 f33d fcc4 933d
00000160: d661 1ebe aa68 d43d 6775 f53d 161a 81be
00000170: 7e9c 84be 0a31 733e e82e 9ebc 9465 a23d
00000180: 02a3 343d 71cb c23d 1955 9f3e c46f c6bd
00000190: cb5d b7bd eb98 8abd e4ff 0f3e db79 6e3c
000001a0: 6e52 083d c0c6 af3d c966 58bb a02f 0dbe
000001b0: 1360 333e 75fb b53d 42e8 5f3e 0eae 103e
000001c0: fcfd 5a3e d60f df3d bf00 2f3e d822 e6bd
000001d0: c7ba d7bd 6934 91be e50e 82be c415 543e
000001e0: 5ec9 a4bd cc90 1f3e d224 303e 23af c63d
000001f0: 9add 703d 30f1 2c3e 9b2d 74be 128b fabc
0.4186482 -0.0051614363 0.20218417 0.033379763 -0.11560174 0.04530424 0.0651095 -0.02049811
-0.020293519 -0.025772661 -0.121654406 -0.0072260625 0.09356254 0.10010157 0.2911607 0.1270656
0.0568344 -0.3917937 -0.08432703 0.0041371556 -0.16058192 -0.2379736 -0.025128677 0.16608146
-0.17043826 -0.25604334 -0.24459398 -0.088569626 0.32348993 -0.04594033 0.074944824 -0.15157641
0.054911494 -0.09179404 -0.060675934 0.16154855 -0.15769264 0.04216015 0.12969388 -0.21860565
0.27439392 0.0033103477 0.2853862 -0.061341763 0.11492241 0.35657248 0.21784599 0.06144204
-0.10804995 0.006995305 -0.07276702 0.25534123 -0.16155362 -0.16676307 0.13062589 0.11586909
0.045670956 0.00038910445 -0.09910497 -0.010761252 0.060367268 0.024099011 0.00041094786 0.08174165
0.030139957 -0.024639219 0.13902327 -0.29951784 -0.060330078 0.03419279 0.39414352 -0.029528555
0.085752696 -0.08635456 -0.030523002 0.4306996 -0.11071845 -0.035181887 0.17057154 -0.04045787
-0.06361343 -0.18440846 -0.07110637 0.037091203 0.2388808 0.09865941 0.11893733 0.07215306
-0.15467009 0.103715256 0.11985283 -0.25215214 -0.25900644 0.23749176 -0.019309476 0.07929531
0.04410077 0.095114596 0.31119612 -0.09689286 -0.089534365 -0.06767448 0.14062458 0.01455542
0.033281736 0.085828304 -0.003302025 -0.13787699 0.17517118 0.08885852 0.21865943 0.14128897
0.2138595 0.10891692 0.17090128 -0.11237115 -0.10533672 -0.28360298 -0.2540199 0.20711428
-0.0804622 0.1558258 0.17201546 0.097013734 0.058805086 0.1688888 -0.23845522 -0.030583892

layer3.weight f4 [62, 128]
00000000: 21a1 933d 333a 1b3e 784d 8b3e f553 a1be
00000010: 5a48 023e 8349 b2bd 6f45 69be b1c3 d0be
00000020: 3ae8 b6bd f488 1e3d 749f 0fbf 663b f7bb
00000030: 4cc6 c4be 7fbf 2c3e bbab 01bd 8c66 173f
00000040: 011a 613e 9b9f 23be 3d38 37be e8ba d43e
00000050: 8efc 10bd 3321 c6bd deed b73d ec19 d83d
00000060: b552 89b9 5dc1 a6be 74a0 79be 2f6e e2bd
00000070: ac2d e93d 6e22 803e d0c8 173e 4c5f bf3d
00000080: d1ee 4c3d 2a7a 0b3e 7ce1 163e b63b 8abe
00000090: 4d46 21be 6ea5 093e 8ca8 f8bd 35c3 84be
000000a0: 8164 36be 4ed5 053c 4cdd b2bb 477b b8bc
000000b0: 50e9 973e f333 56bd 58dd b3bd 7ccc 9b3d
000000c0: 1d5d 5dbe 93e8 713e 2c6c 003d 50a9 073d
000000d0: ce3f b1be 8d20 fc3d 1eaa 09be f760 29bd
000000e0: dca2 93be 64d9 79be 7048 0abe 7b51 fe3d
000000f0: f80c ed3e 4196 d83d c4e8 8d3e 2a10 42bc
00000100: 16d5 903e 9103 58bd 4d81 f33d d2e0 debe
00000110: ff15 ce3c d181 75be 4452 b6bd c694 6abe
00000120: 1409 763e 452f 8e3e 60ac 13ba f0d7 e43e
00000130: be15 69be 0c16 6d3e 8871 e53e 6533 aebe
00000140: 9589 d8bd 63eb 79be d272 babe d9bc adbb
00000150: 3672 a0be e8bf e13d f2d2 c5bd f645 0cbe
00000160: 96c9 a13e db04 cb3c 46f7 0fbe 853d 94be
00000170: 6868 27be 5303 abbe 8c15 1f3e 702b 2c3e
00000180: 14e6 193d a9cc 8e3e cf70 883e b8bf aa3d
00000190: 11d0 533e ce6c b9be 23c8 843d 6c42 2dbc
000001a0: 0afa e2be 0200 313e ea3f 343b 72a5 95be
000001b0: 5989 a1be 9efc 603e ce51 243e 77fb 37be
000001c0: 39a3 da3d 7aab 2cbd fc2e f33b a2d3 e43d
000001d0: 3792 84be 54db 99bd 1a05 72be f5ab 803e
000001e0: ae98 b1be 6819 aa3d 8ad3 20bd 74dd 8abc
000001f0: 553a 1f3e ef47 35be 7493 71be 5101 ef3d
00000200: 74bc 5cbe 7d3d acbd 1ea5 793e 5de9 093f
00000210: 2ad6 513d 11df a3be dc26 103d e168 b33e
00000220: 3e4e 88bb 5a2d 6c3d a054 bd3e 03a5 d7bd
00000230: 2065 50bc b5d9 1e3c afaa acbe 320e 623e
00000240: 61be 06be 8ace cc3d 2e34 35bd 4d0a cdbd
00000250: ba37 47be 5616 6d3d 9e8a c4bd a2e5 0bbf
00000260: a4d6 fbbe 04f4 c2bd c626 3e3d 0b10 71be
00000270: 270a 87be 8681 ccbe ee96 ec3c 3cba 873d
00000280: 28f1 7bbe fc99 a13b a10f 6c3e 9d08 fabd
00000290: fa79 673e 6aa5 0d3f ee13 533e 37ed c53d
000002a0: dcd0 10bf 9fa2 f8be debb 83be 5f68 0e3e
000002b0: c25a e8be 54c6 98be 6e98 673e 0ce9 af3e
000002c0: edda 95be 265f 6b3e 3aa5 c93b aee8 6f3e
000002d0: 6c4c f2bd f6cb 0d3e e28e 8ebe b038 a6bd
000002e0: 4e5c c2bd f286 b6bd 60c9 443e 4cb3 70bd
000002f0: b173 9dbd bd6e 5d3e ce0d 023e 5020 4cbb
00000300: a46a 473e 72dd b1bd 4e1f a43e bcad 9c3e
00000310: 5e66 0d3e 1cab 5ebe 5909 b2be 0e44 b33c
00000320: f32a f43d d5d2 cebd 953d 16be 181a 493e
00000330: 2782 b03d 66a7 be3e d8a9 733e e957 ffbd
00000340: da84 8bbe 6553 a7be 460b a7be 236f 2d3e
00000350: f3bd 80be bc7b 89bc c640 99be 82bc a83e
00000360: 4d4e 513e 68fd c23e efc5 933d 8b0e 9c3e
00000370: acca d4be 2900 d23e 4142 b7be df52 8a3e
00000380: 0e0b 22be f9af 0bbe c5fa 383e 576b 0cbd
00000390: 1872 4dbe 39e8 523e 2e2d 2bbf 5aee fbbd
000003a0: e52e 843e 62fb c43d 851c 233d 1e1f b8bd
000003b0: 8a06 5e3e ebe2 853e ac9c a0be 7abe be3d
000003c0: 3dfc 133c 95d6 0d3e ac1f e53c a0ea bf3e
000003d0: 23a6 0abf 2f0e 8ebe 7807 183e 4629 47bd
000003e0: fe87 773e 8150 37be cb95 52be 3ff7 02bc
000003f0: 1afa d5bd dfb0 3c3d b900 d23e 7f2e 983e
0.07208467 0.1515892 0.2720754 -0.31509367 0.12722912 -0.087054275 -0.22780393 -0.407743
-0.089310125 0.038704827 -0.5610268 -0.0075449226 -0.38432539 0.16869925 -0.031657916 0.5914085
0.21982576 -0.15978853 -0.17892547 0.41548848 -0.035397105 -0.09674301 0.089809164 0.10551819
-0.00026192298 -0.325694 -0.24377614 -0.11056172 0.11385664 0.25026268 0.14822698 0.09344348
0.05003244 0.1362082 0.14734453 -0.2699868 -0.15749474 0.13442013 -0.12141523 -0.2593018
-0.17811777 0.008168532 -0.0054585095 -0.02251972 0.2967019 -0.052295636 -0.08782452 0.07607362
-0.21617551 0.23623876 0.03135316 0.033120453 -0.34618992 0.12310896 -0.13443801 -0.04135224
-0.2883519 -0.24399334 -0.13504195 0.12417885 0.46298957 0.10575534 0.2771665 -0.011844674
0.28287572 -0.052737776 0.118898965 -0.435309 0.025156973 -0.23975302 -0.0890241 -0.22908315
0.240269 0.2777044 -0.0005633291 0.44695997 -0.227622 0.23152941 0.4481318 -0.34023586
-0.10573117 -0.24406199 -0.36415726 -0.0053020534 -0.31337136 0.11022931 -0.09659375 -0.13698563
0.3159911 0.024782589 -0.14059171 -0.28953186 -0.16348422 -0.33400974 0.15535563 0.16813445
0.037572935 0.27890518 0.26648566 0.08337349 0.2068484 -0.36215824 0.064834855 -0.010574918
-0.4433139 0.17285159 0.0027503916 -0.29227787 -0.315501 0.21971366 0.16046831 -0.1796702
0.106756635 -0.04215572 0.0074213725 0.11173178 -0.25892803 -0.07512537 -0.23634759 0.25131193
-0.34686798 0.08305627 -0.03926424 -0.0169513 0.15549596 -0.17703222 -0.23591405 0.11670173
-0.21556264 -0.084101655 0.24379393 0.5387171 0.051229633 -0.32006124 0.03519331 0.35040954
-0.004159718 0.057660438 0.36978626 -0.1052952 -0.012719423 0.00969546 -0.3372397 0.22075728
-0.13158561 0.10000332 -0.044239216 -0.1001173 -0.19454852 0.05788263 -0.09596752 -0.54647267
-0.49187195 -0.095191985 0.046423696 -0.23541276 -0.26374933 -0.3994257 0.028880563 0.06627318
-0.24603713 0.0049316864 0.23052837 -0.12208674 0.22605124 0.55330527 0.20613071 0.09664386
-0.56568694 -0.4856157 -0.2572927 0.13907002 -0.45381743 -0.29838812 0.22616741 0.34357488
-0.2926859 0.22985515 0.0061537297 0.23428604 -0.118309826 0.13847336 -0.27843386 -0.08116281
-0.09490262 -0.089124575 0.19217443 -0.05876474 -0.07688082 0.21624275 0.12700579 -0.003114719
0.19474274 -0.086848155 0.32055134 0.306013 0.13808581 -0.2174496 -0.34772757 0.021883037
0.119222544 -0.10098807 -0.14671929 0.1963886 0.086185746 0.3723709 0.23795259 -0.124679394
-0.27249795 -0.32680812 -0.32625788 0.16936927 -0.2514492 -0.016782634 -0.2993223 0.3295632
0.20440026 0.3808396 0.07215487 0.30479845 -0.41560876 0.41015747 -0.35792735 0.2701635
-0.1582453 -0.13641347 0.18064411 -0.034282055 -0.20063055 0.20596398 -0.66865814 -0.12301321
0.25817028 0.0961826 0.03982212 -0.0899031 0.21682182 0.26149687 -0.3136953 0.09313674
0.009032306 0.13851388 0.027969204 0.37483692 -0.54159755 -0.27745196 0.14846599 -0.048623346
0.2417297 -0.17901804 -0.20564954 -0.007993518 -0.10448094 0.046067115 0.41016176 0.29722974

layer3.bias f4 [62]
00000000: a505 ed3d 5a55 603e c0b8 34bc 68b1 ae3d
00000010: d12c d93d 5398 9f3d 4728 00be 1d9c 12be
00000020: a486 353f 2bac 943d a508 4abd face 283e
00000030: 528d 7b3e 23ec 343e be39 913d 5b56 5f3e
00000040: 8ecf d1bd 4a49 dd3d b2ce d6be d25e c5be
00000050: 1760 9f3d 61e8 69be 1a55 233e edb0 2c3e
00000060: 253b 793e e070 6dbc e842 8d3d e077 c43d
00000070: b381 2f3e 243a 03bd 90e2 b73e 877c 943d
00000080: ae46 963e 5cae 8b3c ce8e 353d 66a3 a4bc
00000090: 48af f6bd a8b2 f6bd 9419 f3bd bf3f f6bd
000000a0: 09d4 f7bc 21ac 37be f2b5 5bbe ca8a 783e
000000b0: a202 c8be 388a 04be a9c6 953d a4d6 103e
000000c0: 70f8 7abe 52e2 c73d 915a 0ebe 0821 21be
000000d0: 704c 51be 136d 87be 4d16 6dbd 80df 78bd
000000e0: 3a5c 30be 9061 e6bd 7dd7 8f3c 7c4a f73c
000000f0: 7248 72bd 89d1 eabd
0.11573342 0.21907559 -0.011030376 0.08529931 0.10604251 0.077927254 -0.12515365 -0.14317365
0.7090857 0.07259401 -0.04932465 0.16485205 0.24565628 0.17668204 0.070910916 0.21810286
-0.10244666 0.108049944 -0.4195457 -0.38548905 0.077819996 -0.22842552 0.15950432 0.16864367
0.24338968 -0.0144922435 0.06897527 0.09593177 0.1713932 -0.03203787 0.3591504 0.07250314
0.293508 0.017050914 0.044325642 -0.020097446 -0.12045151 -0.12045795 -0.11870113 -0.12023877
-0.030252473 -0.17936756 -0.21456125 0.24271694 -0.3906451 -0.12943351 0.07313282 0.14144379
-0.24508834 0.09759964 -0.13901736 -0.15735257 -0.20439315 -0.26450405 -0.057882596 -0.06076002
-0.17222682 -0.11249077 0.017558808 0.030186884 -0.05915112 -0.11465747
