assignment3_results/models/parallel_clients.pth (torch, 502690 bytes, 6 tensors)

layer1.weight f4 [128, 784]
00000000: 2e93 d0bb 1898 d9bc 5909 b6bb 48bc 8cba
00000010: 6c89 dbbb f8a2 f2bb b21f db3c f631 d73c
00000020: 207f ccbc fcbd a33c ca76 7a38 8741 e3bb
00000030: 053a 6f3c fd0c 0f3d 907b f6bc e8da 783c
00000040: f4da 923c 57f6 c43b 7cff e5bb bdd6 e83c
00000050: f8eb f3bb 1dee 96bc 6c5d 03bd 1c95 363c
00000060: f686 88bc 0395 dfba 86a9 7abc e729 cbbb
00000070: 6c0f f0b9 52d5 46bc d598 903a 92c3 103d
00000080: e4c8 133c c18b 1f3c 3e92 843b 2283 983c
00000090: 0d95 77bc b2d0 75bc a47c 943c 1c0b 55bc
000000a0: d144 073c cf8b 0ebd b425 03ba 0caa ce3c
000000b0: 48f1 333c 9926 d9bc 84e9 d6bc 3cb1 56bb
000000c0: 8b37 833b eaf2 113b 456d b33b cfe7 c33c
000000d0: fc2d 753b 3ec5 db3c a3cf 06bd 55be b23c
000000e0: 37f0 003d d287 7ebc bc65 8b3c 502b e2bc
000000f0: 63df a0bc acbc 32bc 2e03 6d3c 0878 d3bb
00000100: b42a b83c 4a19 8f3c 8401 d73c 2bc0 8dbc
00000110: 3da6 a3bc 0a95 4abc 56b8 e23b 23e0 b53a
00000120: f7c8 883c c4eb 0dbc 4c99 edbc ac08 f1bc
00000130: 1af0 0ebd 47fa f93c fb90 d23c cb25 d43c
00000140: 78f1 90bc 58c4 403b 3e6d a33c ee47 dabc
00000150: 1e79 c5b9 9330 d4ba dced d73c 4464 a1ba
00000160: 5077 aabb 1fbb fbbc 4cf9 9d3c a85a 9b3c
00000170: df6c 663a 199b e13c 46e9 843b 6488 823c
00000180: ebf8 2ebc 6a4b 403c 74e3 e1bb c6d0 c2bc
00000190: 7aca 7dbc 3f57 87bb be19 ae3c 4616 0e3b
000001a0: 5c70 31bb dfdd f5bc 04c9 a63c 9c3a 80bc
000001b0: 705f 31bc af47 993b 8458 363c 0b43 503c
000001c0: 07ec 033d 5235 d5bc 6ae6 0dbd 448a 3739
000001d0: 5163 d6bc 113c d73c 9d82 0cbd a2a4 f6bc
000001e0: db06 e0bc 541f 103d a83f d93c 8cfb 03bd
000001f0: 27ef 023d 8826 24bc b939 0ebd 118e 093d
00000200: 1e8f f5ba 170a cd3c 4014 933c fcf8 2f3b
00000210: 3401 e1bb c00a f9bc 4ab3 d03c b072 f53c
00000220: 3cde 223b 4aaa 4ebc faf0 78bc 95fe 943c
00000230: f9a9 973c c291 6c3c 2a91 363c 62fe 943b
00000240: 68d4 023c ba25 c03b 30d3 583b ff8b b53a
00000250: 920f 533c 5686 e9bc 7ca8 143c 56b4 2ebc
00000260: 948f cbbc 6e6a d53c d320 96bb 185e 313c
00000270: 4c52 093c 7240 12bc 8357 023d b45f 05bd
00000280: f934 92bc 1202 f03c 7e19 cf3c 8f25 3bbb
00000290: e0a2 a8bc 48c7 a63c fa34 df3c e4e8 46bc
000002a0: 2ca4 f2bb c05e 023d 1972 c43c 7bd0 fbbc
000002b0: 58ea adbc 70dd f13b ace6 573c 70f6 4a3c
000002c0: c791 903c ee2c be3c f6b6 fabb d578 c3bb
000002d0: ded3 113d 20ec 733c ca07 393c a259 b63c
000002e0: 7ce1 c6bb 49fc ccbc 1699 7f3c 8a5e 5a3c
000002f0: d5ce 2bbb fc97 e33c 5af4 6ebc 41de 77bc
00000300: b01a cfbc 461d 093d 4904 2dbc 4b27 343b
00000310: 9a50 e2bc f863 a239 1638 31bc 48c4 bcba
00000320: 7c23 06bd 11cd 053d ea55 81bc b5cc aebb
00000330: cc7c 9f3c 15c2 833c bbfe 00bd 4832 3cbc
00000340: 90c2 eb3c d3d5 053c f65e 9ebc e796 05bd
00000350: 9f06 09bd a1f0 2d3b 9409 6f3c ec68 91bc
00000360: 9df2 ac3c 068c 093d 1326 c8bb 8de5 5e3c
00000370: e762 bebb 564c b4bc fd2c 94bc 3d5a 533c
00000380: 80d7 d83c 6899 553b 1c5a 0a3d 3a46 d03c
00000390: 0a37 c83c bcb9 993c 8c6c 87bc d073 2bbc
000003a0: f998 c2bc 043b 9d3c 2d0d b6bb 060a b0bc
000003b0: 1d65 443c ff64 853c 0b90 c0bb 6918 10bd
000003c0: 3cca 66bc 4a27 2e3c 4970 f23c 9c9a 30bc
000003d0: 3b03 0a3d 2e5f ca3c b270 683c a73f 85bb
000003e0: 7484 423b 2cb3 5b3a 3dbf dbbc f718 d3bb
000003f0: 8c06 b33c ef86 823b 0f7e b13c 74a5 2fbc
-0.0063652014 -0.026561782 -0.0055553135 -0.0010737265 -0.0066997316 -0.0074046813 0.026748512 0.02626894
-0.024962962 0.019988053 5.9715276e-05 -0.0069353017 0.014601235 0.034924496 -0.030088216 0.01518891
0.01792667 0.0060108113 -0.0070189815 0.028422708 -0.007443901 -0.018424088 -0.032071516 0.011143949
-0.016665917 -0.0017057959 -0.015299207 -0.0062000635 -0.00045787857 -0.01213582 0.0011031876 0.03534276
0.009020064 0.00973791 0.0040457537 0.018617216 -0.01511122 -0.01500337 0.01812584 -0.013003137
0.008256153 -0.0348013 -0.00050028716 0.025227569 0.010982819 -0.026507663 -0.026234396 -0.0032759449
0.004004424 0.0022270032 0.0054756724 0.023914246 0.0037411442 0.02682745 -0.03291286 0.021819273
0.031479087 -0.015535312 0.017016284 -0.027608544 -0.01963777 -0.010909241 0.01446609 -0.006453518
0.0224813 0.017468113 0.02624584 -0.017303547 -0.01997673 -0.012364635 0.006918947 0.0013876002
0.01669739 -0.008662168 -0.029003762 -0.02942308 -0.034896947 0.03051485 0.025703898 0.025896927
-0.017693266 0.0029413905 0.019949552 -0.026645627 -0.00037665007 -0.0016188793 0.026358537 -0.0012313207
-0.0052022114 -0.030728875 0.019283913 0.018964127 0.0008790027 0.027539777 0.0040561287 0.015934177
-0.010679464 0.01173673 -0.0068935696 -0.023781192 -0.015490169 -0.0041302736 0.02125251 0.0021680756
-0.0027075028 -0.030013023 0.020359524 -0.015652947 -0.010825977 0.004677735 0.011129502 0.012711297
0.032207515 -0.026026402 -0.034643568 0.00017503748 -0.026170405 0.02627376 -0.03430425 -0.0301078
-0.027347019 0.035186127 0.026519611 -0.032222316 0.031966355 -0.010018952 -0.034723017 0.03358275
-0.0018734669 0.025029225 0.017953992 0.0026851287 -0.0068665985 -0.030400634 0.025476117 0.029961914
0.00248517 -0.012613842 -0.015194172 0.0181878 0.018513666 0.014439048 0.011143008 0.0045469264
0.007985212 0.0058638724 0.0033084862 0.0013850926 0.01288213 -0.02850644 0.009073373 -0.010663113
-0.024848737 0.026051726 -0.0045815497 0.010825656 0.0083814375 -0.008926498 0.03182174 -0.032561973
-0.017847525 0.029297862 0.02528071 -0.0028556322 -0.020585477 0.020358697 0.02724694 -0.012140486
-0.0074048247 0.031828642 0.023980187 -0.03073906 -0.021229908 0.0073811337 0.013177555 0.012387857
0.017647637 0.023214784 -0.007651205 -0.005965332 0.035602443 0.01488784 0.011293361 0.022259537
-0.0060693603 -0.025022643 0.015600463 0.013328204 -0.002621581 0.027782433 -0.014584625 -0.015128673
-0.02528128 0.033475183 -0.010560104 0.002748924 -0.027626324 0.0003097353 -0.010816595 -0.0014401758
-0.032748684 0.03266627 -0.015788037 -0.0053344616 0.019468687 0.016083756 -0.03149293 -0.011486597
0.028779298 0.008168655 -0.01933239 -0.032614615 -0.03345358 0.002654113 0.014589686 -0.017750226
0.02111178 0.033580802 -0.0061080544 0.013604534 -0.00581013 -0.022009056 -0.018087858 0.012899932
0.026469946 0.0032592658 0.03377734 0.025424112 0.024440307 0.018765323 -0.016531251 -0.010464624
-0.023754584 0.01919318 -0.00555577 -0.021489155 0.011986998 0.01628351 -0.0058765463 -0.03517953
-0.014086302 0.010629484 0.029594557 -0.010779049 0.033694487 0.024703588 0.014187025 -0.004066426
0.0029681 0.00083808857 -0.026824588 -0.006442185 0.021853708 0.0039833705 0.021666555 -0.010720599

layer1.bias f4 [128]
00000000: 3d73 01bd 9921 0ebd d70f 173d 0f47 29bc
00000010: ce7f 2ebc c417 10bd 86f4 253c 5bf4 33bc
00000020: cd46 ed3b b37c fcbb 3daf 033d 248a 043d
00000030: a01a 92bc 0605 7d3c 8e55 093d d4ce c4bc
00000040: 27ee f3bc c0a8 16bc 29b6 04bd 101a 193d
00000050: 4f8e 263c 6ed7 e63b fc84 ad3c 87e9 bb3b
00000060: acb1 073d 908d fcbb 8056 1cbb c55a 7cbc
00000070: c8ba 333c af6d 8ebc ec36 333c c2b1 05bd
00000080: 722a b93c 15cc 8ebc ef69 003d a57c b9bb
00000090: b449 f73c 8a38 113d e324 4ebc 8166 8a3b
000000a0: ec71 04bd 5876 84bc aa24 a63b e442 453c
000000b0: 6a61 fb3b f00d e33c 1410 bfbc bffe 26bc
000000c0: a881 4e3c 92ea 313a b92c 2ebc 353a babc
000000d0: 140a 24bc c310 183d 237c fc3c f464 a0bc
000000e0: 6608 233d 07c2 313c 27ff 96bc 1bd5 f83c
000000f0: 7c91 5e3c bbc8 7c3c 08f5 15bc a613 b13b
00000100: 7e1c b1bc db4c 56bc b0f9 6eba 4d1f 81bc
00000110: 2af4 12bc 5a06 74ba b502 8bbb 689e f2bc
00000120: b8cb 023d 4aad ddba 78e4 14bd ea5a e9bc
00000130: a370 bc3c f5e4 bdbb ebd3 093d 98ea ebbc
00000140: 26b1 153d f9ea c1bc 1a64 d2bc 2b48 5bbc
00000150: c879 21ba 7b58 0dbd eb36 833c 8e75 09bd
00000160: e737 983c 4e86 af3c b426 623c 9f86 553b
00000170: 06d2 d33c 2783 d3bc 1e51 50bb a819 543c
00000180: 5a09 edbc c406 03bd a1bb 5ebb 1e89 ae3c
00000190: 265b f2bb 7025 213c cc2d bb3c 30eb 5a3c
000001a0: e407 9a3a d115 373b 9de8 e23c 6e9c 92bc
000001b0: c695 2c3c f0f0 b6bb 8177 f8bc 2e5a b03a
000001c0: 1047 cf3c e53e 02bc 0ca0 0a3d ad16 bfbc
000001d0: 7514 9c3c 0284 1a3d 582b 5bbc 18ef c53c
000001e0: 9281 d43c e621 123d e465 0cbd 62ce a3bb
000001f0: b62e 04bd d5fb dabc 1bff d0bc 9774 81bc
-0.03160404 -0.03470001 0.03688034 -0.010331883 -0.010650588 -0.035178915 0.0101291 -0.010983552
0.007241106 -0.007705295 0.032149542 0.032358304 -0.017834961 0.015443092 0.033528857 -0.024024405
-0.029776646 -0.009195507 -0.032400284 0.03737837 0.010165765 0.007044724 0.021181576 0.0057346257
0.033128425 -0.0077073053 -0.002385527 -0.0154025005 0.010969825 -0.017386286 0.010938387 -0.032640226
0.022603247 -0.017431298 0.031351026 -0.0056606107 0.030186512 0.03545431 -0.012582037 0.004223645
-0.032335207 -0.016169712 0.0050702887 0.012039874 0.007671525 0.027716607 -0.023323096 -0.010192572
0.012604155 0.0006786968 -0.01063078 -0.022732833 -0.010012168 0.03712536 0.030820912 -0.019579388
0.03980293 0.010849482 -0.018432213 0.030375054 0.013584491 0.015428717 -0.009152658 0.0054039536
-0.021620031 -0.013079847 -0.0009116186 -0.015761996 -0.008969346 -0.0009308808 -0.004242266 -0.02961655
0.031932563 -0.0016912606 -0.036350697 -0.028485734 0.023002928 -0.005795116 0.033649366 -0.028798386
0.036545895 -0.023671614 -0.025682498 -0.013383905 -0.00061598094 -0.03450821 0.016017398 -0.033559375
0.018581344 0.021426346 0.013803173 0.003258146 0.025856983 -0.025819374 -0.003178663 0.01294557
-0.028935123 -0.031988874 -0.0033986347 0.021305617 -0.0073961196 0.009835586 0.022848986 0.013361737
0.0011751619 0.0027936588 0.02769881 -0.017896857 0.010533756 -0.005582921 -0.030330421 0.001345461
0.02530244 -0.007949566 0.03384404 -0.023326242 0.019052723 0.03772355 -0.013377033 0.02416186
0.02594069 0.03567686 -0.034276858 -0.004998968 -0.03227111 -0.026731411 -0.025512269 -0.015802665

layer2.weight f4 [128, 128]
00000000: 1cbe 9f3d b7e1 513d e270 5b3d aec7 82bc
00000010: 2d7f 543d 0e74 343d 8497 a4bd 3819 203d
00000020: 5256 2e3c fc17 dabc acfb 21bd 00c1 f63b
00000030: b9ef efbc 92f4 3fbc 0e93 85bc f867 a73d
00000040: 8041 053d c211 46bd 465e b1bd e8a1 1abc
00000050: a72e acbd 48fd cc3d 1f98 39bd 0862 9dbd
00000060: 0315 c93d 8e95 bcbc 5460 6ebd 16db 513c
00000070: 19b6 1c3d e45a a0bd 5900 a73c 0f7f 01bd
00000080: 58ed 403d b133 a83d 4f78 86bc 7c6b c53b
00000090: fb5b bebb 6c2f 31bd 9474 16bc 1280 9c3d
000000a0: 1f2e af3d bd12 4ebd b021 b1bd e4db 9dbc
000000b0: 7af3 013d 6540 4ebd 70e8 a63d a196 b93d
000000c0: 0eee d43c f29b 2cbd 2fc3 56bd 2cf2 a5bd
000000d0: 970b e93d 86c2 833d 1bac bf3d 9eb0 8fbd
000000e0: e0c5 823d 3a4e 97bd 124a 88bd 8a7d 13bc
000000f0: d494 e13d dc33 cbbd 5414 98bd eaba 163d
00000100: 3864 023e 4100 06bd 0af4 45bb d6c0 a03d
00000110: 1a8a 4d3d 7634 ac3d df93 26bd 04dc 05bc
00000120: 8f17 7fbd 7c3f 09bd a995 54bd 2e8c 9b3d
00000130: 5620 04bd 366e cbbd 4637 933c 0fa4 0cbd
00000140: ba72 b6bc b276 1cbe 752d 1a3d 50c2 81bd
00000150: ebd8 0f3e c9ae 9c3d 66d8 5a3b 7bf3 26bd
00000160: 2282 ecbd 3d64 28bd 4355 333e d00f 76bd
00000170: 3cfd 59bd f4e1 4ebd 7883 a03d c2ef 993c
00000180: 8539 4c3d d684 c6bc 7f3c 50bd 5ba8 02be
00000190: 06e1 03bd 3935 afbd c912 67bb 3841 863d
000001a0: 7038 ecbd 485e 77bd 9f62 013d 687f 713d
000001b0: a851 a33d d67a 11be ea20 d43c d59f 8fbc
000001c0: 7c20 833d 4d28 a63c 1038 01be 2ce5 dabc
000001d0: cfc9 3f3d dc59 983c 562c e5bc 6f39 2b3e
000001e0: c8f5 293d cef5 a7bd 6497 a23d b1c2 44bd
000001f0: ee01 afbd e601 ebbc c25a febd 31c8 6fbd
00000200: a525 91bd c231 7abd ee2a 983d e0a6 4e3c
00000210: aeb3 59bd 02ab 90bc dc0f 983d 508e a03d
00000220: e55d 14bd e4dc 7cbd 73f7 1fbd 8071 3e3c
00000230: d422 74bd c2fc 5c3a 311a d5bc 59af a8bc
00000240: 99d6 8dbd a28a 9439 3bc9 6e3b 2785 bdbd
00000250: 3517 833d 6928 ce3d d649 7cbd 57c0 863d
00000260: 49dc 0cbd d0a2 383d cefd 20bd 2409 493d
00000270: 56d2 773d dc88 32bd 3435 8e3d 9433 1b3c
00000280: 9058 923d be14 9cbc 8696 cb3c 7605 1d3d
00000290: 8d5f 20bb 83ee a2bd da7b eb3b d51d a53d
000002a0: 70ae 5dbd 95b2 4a3d 062c b2bd 1010 0dbd
000002b0: 1186 a9bc 4d9b 76bd 0ecf 06bb f8a8 ba3d
000002c0: f1dc 6fbc 9cc9 5e3d 7746 a43d 0815 b5bd
000002d0: 06c4 fd3d c2bc f6bb e449 7b3d 3141 ff3d
000002e0: 2592 cd3d a65c a43d b6de 6c3d 2e2e ac3d
000002f0: db0b 62bd 68ee 313d 007c b13d a703 4abc
00000300: 7747 c43d 06d0 703d 9cf2 6fbc d50e 96bc
00000310: 4741 a9bd 5643 d7bc a21a 22bb 6860 8d3b
00000320: e112 693d 9edd b13d edd8 2d3d 029c 963d
00000330: 08dc 8cbd dc3d 27bd e6fd 7d3d a09f 5a3d
00000340: 316f 713c f18e c03c f0f6 67bd abe2 093d
00000350: 0670 ea3b 741d 05bd 623c fcbc d99d 973d
00000360: b45f 253d 3627 86bd 24c2 aebc 25f3 a9bb
00000370: e8a9 76bd 41f2 723d 0652 903c 13ea 843b
00000380: 6811 863d e4da f9bb ca17 dd3b d0e4 56bd
00000390: f77f 65bd 6d61 073c f4b5 ebbc 7d13 7ebd
000003a0: 6877 0d3c c4f9 eebd aed6 b4bc 2e12 873d
000003b0: 4ab1 463d d8c4 95bd dedc 27bd a05d 86bd
000003c0: 5f34 a0bd f836 293d 19f5 a4bd de93 94bd
000003d0: dae2 b33c fa76 483d 30d4 2dbd a23b 6fbd
000003e0: 84f0 0b3d b94f 8b3c 5069 0a3d 217e fd3c
000003f0: 5225 a2bd 6880 02bd 76a3 64bd abc5 593d
0.07799932 0.05124065 0.05357445 -0.015964355 0.051879097 0.04405599 -0.08036712 0.03908655
0.010640698 -0.026622765 -0.039546654 0.0075303316 -0.029289113 -0.011716025 -0.016305473 0.08174127
0.03253317 -0.04835678 -0.08660559 -0.0094380155 -0.08407336 0.10009247 -0.04531109 -0.076847136
0.09818461 -0.023020532 -0.058197334 0.012808582 0.0382596 -0.07829836 0.020385908 -0.031615313
0.04710135 0.08212984 -0.01641479 0.006024776 -0.005809305 -0.043258116 -0.009183068 0.07641615
0.08553719 -0.05031084 -0.086490035 -0.019269891 0.031726338 -0.05035438 0.08149803 0.09061933
0.02599242 -0.04214091 -0.052432235 -0.08102831 0.11379164 0.06433587 0.093589984 -0.07016109
0.06385398 -0.073879674 -0.06654753 -0.009002099 0.11014715 -0.09922001 -0.07425752 0.03679935
0.12733543 -0.032715086 -0.0030205273 0.078492805 0.050180532 0.08408444 -0.040668365 -0.008170132
-0.062278327 -0.03350781 -0.05190054 0.075950965 -0.0322574 -0.099331304 0.017970692 -0.034336146
-0.022271503 -0.15279654 0.037641007 -0.0633589 0.14047591 0.07650525 0.0033393144 -0.040759545
-0.11548258 -0.04111122 0.17512994 -0.060073674 -0.05322002 -0.050508454 0.07837576 0.018791083
0.049859542 -0.024233263 -0.050838944 -0.12759535 -0.03219702 -0.08555073 -0.0035259 0.06555408
-0.11534202 -0.060392648 0.031588193 0.058959395 0.07974559 -0.14207014 0.0258946 -0.017532269
0.0640268 0.020282889 -0.12619042 -0.026720606 0.04682332 0.018597536 -0.027975243 0.16721128
0.04149416 -0.082011804 0.07939032 -0.048037235 -0.0854529 -0.028687429 -0.124196544 -0.058540527
-0.07087258 -0.06108261 0.07430063 0.012613028 -0.05314987 -0.017659668 0.074249 0.07839644
-0.036222357 -0.061734095 -0.039054345 0.01162374 -0.059603527 0.0008429998 -0.026013466 -0.020591425
-0.06925697 0.0002833205 0.003643586 -0.092539124 0.06400911 0.100663014 -0.061593853 0.06579655
-0.034389768 0.045077145 -0.039304547 0.049080983 0.060503326 -0.04358755 0.069437414 0.009472746
0.07145798 -0.01905286 0.024852049 0.038335286 -0.0024471015 -0.07955649 0.007186395 0.08062331
-0.054121435 0.049486715 -0.08699803 -0.034439147 -0.02069381 -0.0602067 -0.0020570192 0.091142595
-0.014640079 0.05439149 0.080212526 -0.08841902 0.12390904 -0.007529826 0.061349764 0.12463606
0.100376405 0.08025484 0.05782958 0.084072456 -0.055187088 0.043440253 0.08666229 -0.012329972
0.09583943 0.058792137 -0.014645245 -0.01831762 -0.08264404 -0.026277225 -0.0024735113 0.004314471
0.05690277 0.08684848 0.042443205 0.07353975 -0.06877905 -0.040830478 0.062009715 0.053374887
0.014735983 0.02350566 -0.056631982 0.033663433 0.0071544675 -0.03249879 -0.030790512 0.07403154
0.040374473 -0.06550448 -0.021332808 -0.005186456 -0.06022063 0.059313063 0.017617237 0.004056224
0.06546289 -0.0076249707 0.0067472206 -0.052464306 -0.05603024 0.008262974 -0.028773285 -0.062030304
0.008634426 -0.11668733 -0.022075024 0.065952644 0.04850892 -0.073129356 -0.04098212 -0.06560826
-0.07822489 0.041312188 -0.08054561 -0.07254766 0.021958757 0.04894159 -0.042438686 -0.05840648
0.03416492 0.017005788 0.03379184 0.030943932 -0.079172745 -0.03186074 -0.05581995 0.053167026

layer2.bias f4 [128]
00000000: 5810 10bd 162a ee3c 38bb 75bd cb87 583d
00000010: 705b 5d3d 2ee9 943d b14d 2bbd 41ab 953d
00000020: 78f7 1e3d 2298 8bbd cd5c eebc 5001 173b
00000030: 89f2 d0bc d661 9bbd 5c9d 903c 9775 033d
00000040: 1f42 41bd 286e ae3d 7d24 2f3d 6be5 a33d
00000050: f723 863d 82c9 cb3c 1151 5e3d ed84 683c
00000060: 8977 d23d 0cbc 9abc dc0f 2dbc 4f4a 8ebc
00000070: 4b99 8d3d c829 8bbd 31e4 373b 0b7e b53c
00000080: 6a87 923d 766e 963d 7df5 a0bc 4e08 c43d
00000090: d4d3 743b dbf8 0b3d baad 2dbd b221 333d
000000a0: c14d 4d3d f94c 403d 348b 57bc 8240 533c
000000b0: 3ef7 27bd b8cf 903d 6fe6 93bb 135f a83d
000000c0: 03f0 3fbc d867 f339 d4d9 aabd f245 b8bd
000000d0: e627 b63b dad4 1b3d 88dc 063d b35e 4abd
000000e0: 5e62 d23c b550 213d bc14 013d dc09 903d
000000f0: 8e5c f9bb 5407 afbd b4c7 8a3d dc34 4bbd
00000100: f4fc 24bb e246 9a3d 7fff 7a3d b50f b83c
00000110: 5357 b33d cc3b 2fbd f343 b13d bd10 ae3d
00000120: b092 3bbd 1477 87bd 9ad5 69bb 38e8 933d
00000130: f077 9b3d 1e25 abbd 4225 2a3d cc28 73bd
00000140: 3910 15bd 2554 113d 8b91 573d 647f 91bd
00000150: 7146 7b3d 94ed debc 109b 553c b182 823d
00000160: 9cfb 6b3c 9a87 203c 62a5 5c3c d33c 24bd
00000170: 5de3 a63d 16e6 1c3d 788f 913d 7090 ecba
00000180: f250 92bd 4f24 33bd 6cc0 a83c fea3 703d
00000190: c29a 4e3d 9a6f cbbb 304e 4a3d c768 aabd
000001a0: 5902 00bd 7c9e 743c f284 ddb9 91db 443d
000001b0: dc94 963d 873c 203d bb22 a5bc 2df1 b93d
000001c0: 3286 72bd e0ea b33d 654f 553d a69f 9bbc
000001d0: 4a32 4b3d f347 86bc ecc0 41bd 2844 74bb
000001e0: c2ba 8abd e638 433d 0786 953c e958 13bc
000001f0: d7fd 2b3d 3097 93bd 605c 27bd 4dc6 89bd
-0.035171837 0.029072803 -0.059993 0.052863877 0.05404228 0.07271038 -0.04182214 0.07308055
0.038810223 -0.068161264 -0.029096985 0.0023041554 -0.025506275 -0.0758702 0.01765316 0.032094564
-0.0471822 0.085171044 0.042759407 0.080027424 0.065498285 0.02487636 0.05427653 0.014191848
0.10276706 -0.018888496 -0.010562863 -0.017369417 0.06914004 -0.067950785 0.0028059597 0.022154829
0.071547344 0.073452875 -0.019648308 0.095718965 0.0037357705 0.034172874 -0.042402007 0.043733306
0.05012298 0.046948407 -0.013155747 0.012893798 -0.041007273 0.07070869 -0.004513554 0.08221259
-0.011714938 0.0004642594 -0.08342329 -0.08997716 0.0055589555 0.038044788 0.03292516 -0.04940672
0.02568167 0.03938361 0.031513914 0.070331305 -0.0076099103 -0.085463196 0.067763716 -0.049610958
-0.0025175186 0.07533051 0.061278816 0.022468427 0.0875689 -0.042781636 0.086555384 0.08499286
-0.04579419 -0.06614509 -0.0035680295 0.072220266 0.07591236 -0.08356689 0.041539438 -0.05936508
-0.036392424 0.035480637 0.052629035 -0.07104376 0.061346475 -0.027212895 0.013037458 0.06372584
0.01440325 0.009797955 0.013467165 -0.04009707 0.08148835 0.038305365 0.071074426 -0.0018048417
-0.07144345 -0.0437358 0.020599566 0.058750145 0.050440557 -0.0062083723 0.04939097 -0.08320766
-0.03125224 0.014930364 -0.00042251457 0.048060957 0.073526114 0.039120223 -0.020158162 0.09079204
-0.05921001 0.08785033 0.05207767 -0.018997025 0.049608506 -0.01639173 -0.047303125 -0.003727207
-0.067739025 0.047661684 0.018252386 -0.008993366 0.041990127 -0.07206571 -0.04085958 -0.06727276

layer3.weight f4 [62, 128]
00000000: 3366 92bd e8f8 eebd 2656 bcbd 56f1 85bd
00000010: e32d 703e c162 523d 78b9 09bc 2c17 bc3d
00000020: 5019 acbd 5160 973d 7b87 11be b427 b1bd
00000030: 8669 94bc 5757 bb39 b874 7e3d 9abd bcbd
00000040: b834 9b3d 67d2 5abc e393 acbd 3eb9 8fbc
00000050: 9f66 133d e50d 533d 3677 723c 98a0 fbbd
00000060: 13ef ae3d 99cf 75bd 20c4 893d 1d5e 6ebd
00000070: 6474 7d3c 85a7 8a3d 62b8 f53d 14a8 a3bd
00000080: 0945 0bbe dc5c c63d 78fb 9fbd aea8 11bd
00000090: 68d5 613d 2bdf 3d3d 9da6 fa3c 6f31 adbd
000000a0: d069 1abd 5e55 913d 8226 a6bc 46f2 58bd
000000b0: ed1e ddbb 3d53 933d 7cfe 8dbd 9807 1e3d
000000c0: ca1d 503d d8ae 4ebc 8a40 02bd ba9f 9abd
000000d0: 1dc2 9cbd bcf1 af3d 0364 853d d8e1 8dbd
000000e0: ca8f 4dbd 7ed7 6fbc f2e1 75bd 6c86 d5bd
000000f0: 51cd 203e a613 1f3d aca0 ea3d 6c4f 9b3d
00000100: 63e8 a3bc db85 c7bd c405 b83d 6015 a4bb
00000110: 8df3 de3d 47d1 db3c 9e38 3c3d 28a4 e43d
00000120: ac04 f43c 88b6 25bd 28cf b33d 958d 88bd
00000130: ab18 95bd 7f31 36bd 2213 173e fc43 963d
00000140: 212a 60bd ac7d 91bb 62ea 0f3c 8eac 283e
00000150: 04b9 80bb 4eb0 183e 06a0 633d 79be 0dbd
00000160: 7b86 123c 1606 2fbe b403 10be 703b 713d
00000170: 74dd 03be 2168 2a3e 8416 34be e5fc 4abd
00000180: 0234 84bd 98ba 24bd cece 8b3d 5ba1 55bd
00000190: b29d a53d fa76 68bd 603f 983d 6e07 a53d
000001a0: 14c9 883d e241 a9bd 320e 223d 00f0 1d3e
000001b0: 3427 f0bc d90b ad3d 645e c63b 26d0 1e3e
000001c0: 0efd 6bbd 4e9e 76bd 0f49 debd 4254 77bd
000001d0: c612 45be 4ec6 85bd 70a1 403d 443a 693c
000001e0: 9a95 65bd 60b5 4cbd 1f84 213e 25e5 a63b
000001f0: aa02 23bd d27b fbbd 749f 983c de18 243d
00000200: fcfa 2f3e b756 31bd da9b b0bb 7aa2 2dbb
00000210: 8c5b 1cbe e11b f2bd 2a13 4bbd 04e3 39bd
00000220: 0ae6 0c3d 1608 adbd 4f69 d3bd 2eb3 dd3d
00000230: 9739 5cbe abf3 753d 111c 3e3d a632 d13d
00000240: feb9 ce3c 4ce6 c53d 6a53 2d3d 8f3c 9a3d
00000250: be2c 1b3e 82b7 9f3d b292 5e3d 1cbf 11be
00000260: ed78 e23c 2ced 193e f32d 8cbc 9256 c2bd
00000270: 171e 413e 45b6 d9bd b65c 803b f653 313b
00000280: aecf d6bc 72a7 9c3c d216 683c 644b 84bd
00000290: de4b 8a3b 3aed 82be 4143 dc3d 6b42 953c
000002a0: 5f5e e83d 3e0f 34bd caa0 543d de4b 0abe
000002b0: b485 073e 3774 953c 884d 853d d8df 07bc
000002c0: 7ab6 113d 1920 d23d 5f1c a6bd c409 c53c
000002d0: f57d 0ebe 1ab9 703d db5e 8c3d 0f90 933d
000002e0: f8aa 43bd 2cd4 623e cc62 993d fa19 35bd
000002f0: b4a5 48bd 0ef7 99bd fe47 edbc 89c6 06be
00000300: 90a3 8dbd 83db b93d bc65 42bd a033 0b3e
00000310: 9a45 083d 03ee d9bc 8d07 053e ee40 2e3d
00000320: d78a 79bd f1b0 42bd 024d 343d 9df6 853e
00000330: 82ce 103e 8ef8 363c 9ea5 40be 0355 73bd
00000340: d8f2 2dbd f9f3 2d3e 1804 783d 18fc a93d
00000350: f5a3 1abd 5080 e3bd f701 793d 8647 abbd
00000360: 9cd0 193d 847e 423e bc78 333d 994e 95bd
00000370: 7a5d 96bd 2eab 55be 1e03 1bbd d85a 97bc
00000380: 0dde 5a3d 04da 64bd 2e07 2f3d dd4c 00bd
00000390: 1423 9fbb 029e e33c 74e1 99bd 0764 1d3c
000003a0: 204d 5cbd 4010 97bd 1eef 683b 9a11 be3c
000003b0: c520 d73c 739e 51be 96d6 103d f07d 93be
000003c0: ef28 ca3d b314 863c bb10 b7bc a62d 7dbd
000003d0: a50a 6a3e 621f e13d 49f6 a13d 12ec d03c
000003e0: 2e38 d93d d606 a93d ae6c 0bbe e298 8e3d
000003f0: 50b0 bd3d 54a1 c23d 8586 693c de67 073d
-0.07148399 -0.11668569 -0.09196119 -0.06540172 0.23455004 0.05136371 -0.008406036 0.09184107
-0.084032655 0.07391418 -0.14211838 -0.08650151 -0.018116724 0.00035732493 0.06212303 -0.09215851
0.07578415 -0.013355828 -0.08426645 -0.017544385 0.03598654 0.051526923 0.01479893 -0.1228649
0.085416935 -0.060012434 0.06726861 -0.058195222 0.015469644 0.06770233 0.11998059 -0.07991043
-0.13600554 0.0968568 -0.07811636 -0.035561256 0.05513516 0.046355408 0.030597026 -0.08456694
-0.037698567 0.070963606 -0.020282034 -0.052965425 -0.0067480714 0.07193611 -0.06933305 0.03858146
0.05080966 -0.012614928 -0.03179983 -0.07549997 -0.07654212 0.08591029 0.06513216 -0.06927842
-0.050185956 -0.01463878 -0.06002993 -0.104260296 0.15703322 0.038837098 0.11456427 0.07583508
-0.020008272 -0.09742328 0.08985475 -0.005007431 0.108862974 0.02683319 0.04595243 0.11164123
0.029787384 -0.04045728 0.08779746 -0.0666763 -0.07280096 -0.044480797 0.14753392 0.07337186
-0.054727677 -0.00444003 0.008783909 0.16472074 -0.0039283056 0.14911005 0.055572532 -0.034605477
0.008943195 -0.17092165 -0.14063913 0.058894575 -0.12877446 0.16641285 -0.17586714 -0.049557585
-0.06455232 -0.040217012 0.06826554 -0.052155834 0.080867186 -0.05675409 0.07433963 0.08058058
0.066789776 -0.08264519 0.03956432 0.15423584 -0.029315569 0.084495254 0.0060537327 0.1550909
-0.05761438 -0.060209565 -0.108537786 -0.06038309 -0.19245443 -0.06531964 0.04702896 0.014235083
-0.056050874 -0.04997766 0.15773056 0.005093234 -0.039797463 -0.12279476 0.01863072 0.040062778
0.17185587 -0.04329559 -0.0053896727 -0.0026494549 -0.15269297 -0.11821724 -0.049578823 -0.045382515
0.03439907 -0.08448808 -0.103228204 0.108251914 -0.21506344 0.060046833 0.046413485 0.102147385
0.025235172 0.09663066 0.042315878 0.07531082 0.15153787 0.07798673 0.05433912 -0.14233059
0.027645553 0.1503188 -0.017111754 -0.09489168 0.18859135 -0.10630468 0.003917302 0.0027058101
-0.026222076 0.019122813 0.014165597 -0.06459692 0.00422047 -0.25571615 0.10755015 0.018220147
0.11346125 -0.04395985 0.051911153 -0.13505504 0.13234597 0.018243892 0.065089285 -0.008293115
0.035574414 0.102600284 -0.0811088 0.024052508 -0.13915236 0.058770277 0.0685403 0.07205211
-0.04777047 0.2215125 0.07489547 -0.044214226 -0.04898615 -0.07517825 -0.028964993 -0.13161673
-0.06915963 0.09075072 -0.047460303 0.13593912 0.033269502 -0.02660275 0.12991162 0.04254239
-0.060923424 -0.047532026 0.044018753 0.26164714 0.14141276 0.0111676585 -0.18813178 -0.059407245
-0.042467922 0.169876 0.06055078 0.08300036 -0.037754018 -0.11108458 0.06079289 -0.083632514
0.03755246 0.18993574 0.043816313 -0.07290382 -0.07342048 -0.20866081 -0.03784477 -0.018475935
0.05343442 -0.05587198 0.042731456 -0.031323303 -0.0048564766 0.027785305 -0.07513705 0.009606368
-0.05378449 -0.07376146 0.0035542916 0.023201752 0.026260743 -0.204706 0.035360895 -0.2880702
0.09871089 0.016367292 -0.022346845 -0.061811112 0.22855623 0.10992314 0.07908303 0.025503192
0.106064186 0.08253257 -0.13615677 0.06962754 0.092621446 0.09503427 0.014253263 0.03305804

layer3.bias f4 [62]
00000000: e7dc 5bbd ae5d a6bd 281b 4fbc 9434 c83c
00000010: f485 e2bb 8419 a63d d040 5dbd 2216 7cbb
00000020: b3e5 25bd 2959 103d 0073 933c ee10 753c
00000030: 5b22 96bd cd30 ebbc f78a 30bd 92a8 c1bb
00000040: f27e aebc bc9a afbd aa49 833d 0644 d3bb
00000050: 7600 a8bd 6648 383c e331 9f3d 4b50 803b
00000060: f466 41bc 9205 9f3c 5258 8d3d 0245 1e3d
00000070: 7d13 0c3d a3b4 0abc a817 273d e4f4 a33d
00000080: 466e a5bc 40a3 033d aa88 973c 6deb 80bb
00000090: 232f 2abd c440 03bd 4046 893d e5b7 e23d
000000a0: 5647 883d 92c1 66bd 7be8 a13d b441 5c3d
000000b0: cf02 343d d74d 13bd a087 02bd a430 86bd
000000c0: 1b4d a6bd 6896 463d 9197 8e3d 1178 2c3c
000000d0: acf8 b7bc 4894 153d 60ef 8dbd 4652 dabc
000000e0: 9415 b7bd a2be 80bd a089 a2bd d62f a83d
000000f0: e073 98bd 9ada cdbb
-0.053677466 -0.08123337 -0.012640752 0.024439134 -0.006912941 0.081103355 -0.05401689 -0.003846534
-0.04050226 0.03524128 0.017999172 0.01495765 -0.073307715 -0.028709793 -0.043101277 -0.0059099877
-0.021300767 -0.08574435 0.06410535 -0.006447318 -0.08203213 0.01124773 0.07773187 0.0039158217
-0.011804331 0.019411836 0.069016114 0.03864003 0.034198273 -0.008465919 0.040794045 0.080056936
-0.020194184 0.03213811 0.018497784 -0.003934315 -0.04154886 -0.032044187 0.06702852 0.11070231
0.06654231 -0.056336947 0.0790567 0.053773597 0.04394799 -0.035962906 -0.031867623 -0.06552246
-0.081201755 0.048483282 0.06962503 0.010526673 -0.022457443 0.036518365 -0.06930423 -0.02665056
-0.089396626 -0.0628636 -0.07936406 0.08212249 -0.074439764 -0.006282163
